Model/models/model_weights.npz (npz, 46462 bytes, 8 tensors)

w1 f8 [45, 64]
00000000: 85b2 6666 3b6c 99bf 1938 dc5d 35aa 8abf
00000010: 6fe0 d3df 5da3 b0bf 2e82 1d73 44eb 94bf
00000020: ba3c 4320 961a a13f d22d cf60 2239 943f
00000030: 60d8 1339 bb9a 98bf 5a69 c184 bdbe 81bf
00000040: 66e8 2018 03f8 a8bf a78b fa64 997f 91bf
00000050: 02d8 d48f d255 9b3f 3ce0 4ad9 6c2c b03f
00000060: fd5a a9d9 9c20 933f 1f2b 2270 98d6 943f
00000070: a21d 7ab9 8647 793f 137f 2a0d 0810 6d3f
00000080: 9029 150d 4e9b a43f 865e b796 2ffe 903f
00000090: fa26 1be4 03ff ad3f 534a 1548 9b02 b0bf
000000a0: 73e9 2f88 d942 b43f 1bac 89f8 087c aa3f
000000b0: b983 97f1 94f4 b5bf 9939 063d e69a a93f
000000c0: c34c 8b8a b250 a83f 3351 89ab 7725 913f
000000d0: 59bf 51c7 f629 b03f 0df1 7bef 0100 b7bf
000000e0: 420b 4498 80b9 a03f d7b6 12c7 cfbe af3f
000000f0: 0959 197f 8266 b23f 6db5 39de aad8 73bf
00000100: 2b07 b094 03e2 b1bf f7fd 14d2 cd9e b0bf
00000110: 702e b865 5618 b43f 5da2 0b64 27ef b6bf
00000120: 89c9 66eb 6fa7 853f 60bc 92eb 30db a0bf
00000130: effd 3079 590b 9d3f b6ab 595f c571 b53f
00000140: d4c2 7451 c6b5 713f 9bea e86b e8ba 85bf
00000150: 8670 9e00 8f86 a5bf 589f c248 4513 83bf
00000160: 4d36 d79f f0f9 833f f797 9d6b b8b4 9cbf
00000170: c36a abbb 52b2 b13f 9737 4ab8 aa30 9a3f
00000180: a092 c89c c641 a53f da80 a808 bf40 803f
00000190: 35fa 054f a210 ac3f 5a36 3022 ea05 a03f
000001a0: ff60 09ab e20c b23f d7eb 95fc 704f a03f
000001b0: 63ad f293 fe4e ae3f c0d6 1ee8 636d a9bf
000001c0: 2201 982e 5065 9f3f 0422 1552 3329 97bf
000001d0: 8938 4bf5 29fe b23f 23c0 6497 b149 9d3f
000001e0: 4974 54c7 922e b43f e035 eb9d 74c1 693f
000001f0: 991c e577 b035 78bf 150f a456 05b2 a43f
00000200: 3bac 6909 94e4 88bf 539d 77ac cdc8 82bf
00000210: 2686 701d debf b6bf 252e 1639 5a9b 78bf
00000220: 461d 3d2b cc23 9a3f 7e2c 0692 f174 af3f
00000230: 4ea6 dde7 feef 9ebf edb7 9d6d 8a41 813f
00000240: 98e6 7a70 0644 a13f 9703 3279 bc34 763f
00000250: 9d55 f8ac 86df b0bf a213 22e7 7746 98bf
00000260: 3d72 4701 4792 8e3f 4fbc 2d07 0faa a73f
00000270: f569 9592 c8dc 92bf 8d2b db26 738f b7bf
00000280: 0518 701f 03fb b1bf 970f b5ba d737 8b3f
00000290: e41d 74b8 7fe2 af3f a37d a0ce 9a47 b53f
000002a0: 7eb8 64da 33ef b23f 2ac1 bf96 428a adbf
000002b0: 07f1 c0f6 c703 7fbf c04e c61c 4702 90bf
000002c0: dc20 1fdc 6911 ac3f fb9d d154 9bc1 ac3f
000002d0: 6f3e bc5c c874 b23f 70a9 188e a8ba b2bf
000002e0: 76bd 06a5 75e6 9b3f b88c 6d8a 4338 85bf
000002f0: 29f2 3527 6122 a73f 69b9 c18c ab69 a5bf
00000300: bc25 52ef d959 7dbf ef44 e62d c822 b33f
00000310: 4b50 7005 5c2d b3bf 8ecd c209 4c8a b0bf
00000320: ac4b 6968 d9b8 b03f 49af be71 00f4 b1bf
00000330: 28ac e909 fd1f b7bf 403d f14a 954b ac3f
00000340: 6472 5843 0560 91bf d07a 029f 3e63 b8bf
00000350: 8f58 d46b 0a9a 91bf 2607 b201 ec42 9e3f
00000360: 979f 395f 575f 833f 9e2c a50b 587e b73f
00000370: fe5b 1473 5084 a33f db06 007c 530e a1bf
00000380: dfb7 339c 55cd a13f d6c8 6945 10f7 8d3f
00000390: 96c9 67e8 4155 9fbf 8b83 9ddc 1ac4 923f
000003a0: bb69 7d25 a189 a4bf 9bce ef34 cd23 b2bf
000003b0: 6b14 2d62 5f8a ac3f 2735 4b1d a439 a0bf
000003c0: 268b b701 a16d 853f 0a4d aca5 f41d 803f
000003d0: 66b4 6511 8955 b0bf 0415 3a0e 2a24 93bf
000003e0: 9991 70c7 4609 893f dd95 dbd2 c527 b63f
000003f0: 518c 732a 0a44 a6bf e18c 9476 a71d a93f
00000400: 7234 3c35 7b1d a13f 5af3 b1aa 3c9b 77bf
00000410: ebdf c277 c4bd 8abf 0a21 78f4 8d3c 95bf
00000420: 7b81 7be1 c93f b63f 63a4 70e6 f64d 443f
00000430: ceb4 5ed7 d1d4 a1bf 4a9b 2411 5db3 923f
00000440: 0627 340e 3223 aebf a59e ea6f 46d2 89bf
00000450: 595d 3f7a 507e b0bf 245b 3ace c0a5 8a3f
00000460: 75c3 61d8 9a31 79bf 66a6 8d79 9626 a73f
00000470: 6ddf 5d2b b66c a5bf a8f6 19b8 80f7 aebf
00000480: 7be4 cc87 aee1 af3f 8468 1388 c188 8dbf
00000490: 8804 129d 66fe b13f 4e61 dffa f6e7 773f
000004a0: c0e2 e34a 698f b13f 1426 b183 6603 a73f
000004b0: a705 db85 6b92 a7bf 626d cc50 b68d 7cbf
000004c0: 9c39 dd0a 6124 aebf 960b 70a4 4ba8 89bf
000004d0: c764 9fb7 31b7 af3f 44c4 d54c 29a3 75bf
000004e0: 6a2e 3ba4 6852 a33f 09e1 e121 2e31 b2bf
000004f0: 6961 9158 00ce b5bf c9d1 91bd b58a 9abf
00000500: 485a 6d30 99c0 b0bf 0277 3680 a926 9f3f
00000510: dd11 322c cecf 7d3f 52ec 58cd 2796 993f
00000520: e9a0 71a5 3dbd b0bf cae7 917a 4d71 41bf
00000530: 6ed3 640e a92e 83bf 4b58 c6c5 f366 793f
00000540: 8236 79ce 8715 b73f cdb8 7c38 f33c 79bf
00000550: ae90 760a a845 633f 125e 104a a5e9 b33f
00000560: 204c bd4c 21bc 50bf da32 2cb6 54fd 953f
00000570: 950f e4d0 c506 7a3f 9988 66ce b971 90bf
00000580: ceeb 0eba d825 a43f 93d3 a277 c333 aa3f
00000590: 6382 c340 ae7c a33f f09f 4ba8 5ad3 7e3f
000005a0: 20d3 ea33 7774 b1bf 6c55 94ff 6884 4a3f
000005b0: bd98 5a79 270f 9e3f 78bd 5f5a ccc0 b2bf
000005c0: fdef b50f 5186 a33f f877 13fd 8f02 acbf
000005d0: 5e8c 0744 5682 b13f bbc8 e71a 5f59 ac3f
000005e0: 7d4a c681 490f 963f 6b57 c920 97b7 acbf
000005f0: 64cd 9e0e 9653 a63f 45b0 7b62 1a21 aa3f
00000600: d651 ed6d c239 afbf 7303 1c3f 9417 73bf
00000610: fac5 773e 04f8 9fbf aa15 29f0 5eaf 80bf
00000620: 1099 d495 d58f 833f f12d 1baa 8615 a13f
00000630: 6be7 6393 8e89 a2bf 3bfc 67e4 9c06 62bf
00000640: c94a b4c8 823c 8ebf 23eb cc87 796c 903f
00000650: 14d2 7a75 0b2f 9f3f 951e 051d 846a 9d3f
00000660: 1132 45be 8242 a6bf 3d36 05b4 71bd ab3f
00000670: 7ed4 bd93 794d 9abf d816 5481 5a59 ac3f
00000680: 3cb1 1298 85e7 a8bf ef1a de9c 215d b53f
00000690: f76e de87 3e17 b03f 323a e03d a863 953f
000006a0: 053e 74dd 047c b03f 5399 7f93 27f7 983f
000006b0: a675 3bff e03c 91bf f565 726e 22b6 9cbf
000006c0: e3dd 17e9 e89a a43f bdb4 b3c7 b038 8cbf
000006d0: 5271 e6e5 bc30 ad3f a4cd e814 05ca a6bf
000006e0: 62c3 cc99 0685 873f 8b9c eb9e 503d b2bf
000006f0: 068f f827 555f b1bf 9858 946f c40d a63f
00000700: 2479 0099 3ef4 9e3f 90c9 1c3a 4800 99bf
00000710: 6e82 d20a 8959 7f3f 8bbd ce10 f70c 943f
00000720: df63 e37a 5965 9f3f 9557 a615 69e0 a23f
00000730: e52c 61df 44fd b73f 6ace 40c9 49d4 9cbf
00000740: 10ad ed8c 146f a63f 863f 6ea9 cdd6 963f
00000750: cb7b 963f f4e6 af3f bc17 7b24 0a67 993f
00000760: 2c8c 7108 5c57 6b3f a85f bb48 5209 af3f
00000770: e20f 580b a9fe 9f3f a0ca f8c2 919e a43f
00000780: 24b5 4e57 c209 9b3f dba4 4059 e229 b3bf
00000790: 5a06 eb38 54f6 b43f 29e5 9a44 41bb acbf
000007a0: 3d71 1008 afe8 aa3f bc7c f6d0 cd00 b2bf
000007b0: 3555 bce8 c680 a7bf 67eb 1f01 fce6 833f
000007c0: d11e 5681 0546 abbf c31e 0f98 712f 27bf
000007d0: 5067 8785 4653 8f3f 9c55 97b1 e184 92bf
000007e0: 2428 d001 b95b ad3f 6be5 06bd 8ef8 a53f
000007f0: a8b9 2810 40e8 a0bf d4e9 7ff4 6e23 a13f
-0.024826934933730022 -0.013019959380042011 -0.06499277796308588 -0.02042872383697352 0.0334059633620369 0.01974920001866371 -0.02402775321839845 -0.008664589513661159
-0.048767182059649625 -0.01708831480813058 0.026694574383519416 0.06317787461273466 0.018679095063215623 0.02034986671837224 0.006171728389410632 0.0035476834539877127
0.0402473822565127 0.016594642232887334 0.058586236567476704 -0.06253977308123497 0.07914504599458443 0.05172756227406002 -0.08576327226866355 0.0500099133961271
0.04749067250454566 0.016744489521742522 0.06314031950182421 -0.08984386536389284 0.03266527041161861 0.06200265221683104 0.07187667468074123 -0.004845302060500029
-0.06985494976109112 -0.06492315653758128 0.0784963606203577 -0.08958669846072938 0.01057326733721166 -0.03292229533814672 0.028363607427534573 0.08376725747954947
0.004323744469090857 -0.010610404770991002 -0.042042225671338904 -0.009314099581686427 0.009754066350889401 -0.028033143585524525 0.06912724572922983 0.025576274393237588
0.04151745475636415 0.007935993625381266 0.054814407488255425 0.03129512469614033 0.07050911594103935 0.03185608943291356 0.05919642978673314 -0.04966270645620119
0.03065991672883784 -0.022618104824944765 0.07419073332423144 0.028601431718186753 0.07883565298512098 0.0031440045998809424 -0.005910577134563466 0.04042069132449747
-0.012154728448157672 -0.009172064615042308 -0.0888651677965063 -0.0060075306258898 0.025527181758005633 0.06143908412476494 -0.030212386037794574 0.00842579028150322
0.033722115736464164 0.0054213869326539465 -0.06591073725606696 -0.02370631550049363 0.014927439428839335 0.0462193199408537 -0.01842034716296755 -0.09203262041698519
-0.07023639218832052 0.013290105233529732 0.06227492453222874 0.083123851247811 0.07396244127150628 -0.057695465948088234 -0.007571965321457214 -0.01563368905188045
0.0548203545764083 0.0561646023787112 0.0720944620518311 -0.0731606814303285 0.027246320912749998 -0.010361220991120454 0.04518416980406343 -0.041821824009150195
-0.007165767009732201 0.07474948044388773 -0.07491088040143372 -0.06461024511627597 0.06532057570556898 -0.07012942101453946 -0.09033185474406535 0.055264153860316245
-0.016967851863329733 -0.09526435262749122 -0.01718918116701978 0.029552161792259522 0.009459192842044035 0.09177160534197745 0.038118852660936384 -0.03331242455170776
0.034769702260618145 0.014631392591784847 -0.03059866887083159 0.01832620593575344 -0.04011252958908381 -0.07085878889466317 0.05574319909514077 -0.031689766479397634
0.010463006844422983 0.007869635873737586 -0.06380516695726754 -0.018692643278446233 0.012224724732796942 0.08654438398260518 -0.04348785179333759 0.04905436823380583
0.033428049324449996 -0.005763279895401785 -0.01305726519090907 -0.02073880962964928 0.08691083674376003 0.0006196456496400212 -0.034826810398365646 0.018262342616391515
-0.05886227057824382 -0.012608099260730763 -0.06442740425642536 0.013011461537912057 -0.0061508225099807705 0.045216276491214555 -0.04184502868059679 -0.060482046578710424
0.06226869018286948 -0.014420997586445113 0.07028809866644015 0.005836453214179761 0.06859453276036742 0.044947818351442376 -0.0460389710328955 -0.006971084757221165
-0.058871300293151324 -0.012528029399623535 0.06194453588950349 -0.005282555893573241 0.03773810391211614 -0.0710629303665692 -0.08517458116819444 -0.02591976136723576
-0.0654388182859772 0.030420921755299986 0.007278256761427984 0.024986860187919575 -0.06538758553654457 -0.0005323055567167886 -0.009366341354146459 0.006201698528817866
0.09017227927071228 -0.006161642151523772 0.002352550701930487 0.07778389986230419 -0.0010214162056925227 0.0214741932095873 0.006354115217849361 -0.016058829519928073
0.03935124655932719 0.05117617450142755 0.0380606130654584 0.007525781755909108 -0.06818337457191292 0.0008092415511408552 0.029354683667997195 -0.07325436788936723
0.038134129684266306 -0.05470704998309367 0.0683950344169246 0.055369350466109656 0.02154269079762593 -0.056088183166749093 0.04360646179648134 0.05103380634486191
-0.060987544936015034 -0.004661158645604557 -0.031219545662628058 -0.008146993354908389 0.009551685938799653 0.0333673555993207 -0.03620572613904368 -0.002200418882466274
-0.014763852834709284 0.016038798249819252 0.03045289902248001 0.028726639052620035 -0.04347618649135055 0.05417971918596407 -0.02568616832964609 0.055369213378112014
-0.048641371549225515 0.08345232085967401 0.06285467927085252 0.020887974526028148 0.06439237982362307 0.024380319955434725 -0.016833797052517994 -0.028038537970678196
0.04024436803222977 -0.013780003637715027 0.05701246553801077 -0.04451003914109755 0.011484195297812586 -0.07124809150592364 -0.06786091066220132 0.04307378637365494
0.030228593910686233 -0.024415138766195776 0.007653746911416277 0.01958070793233228 0.030660055280211537 0.036868366139216104 0.09370832875827124 -0.028153565319554742
0.0438162252456441 0.022303784815050708 0.062308914911447376 0.02480712745343515 0.0033375546950522774 0.06061799180832789 0.03124488956201777 0.04027228837039343
0.026404415682624763 -0.07485785178200237 0.081883682151806 -0.056116141914979 0.05255648587646753 -0.07032476760513168 -0.04590436545383129 0.009717911514589962
-0.05326859668553897 -0.00017689000745079426 0.015295554113368276 -0.01808502813749656 0.05734041354305955 0.04291196877916089 -0.03302192876104765 0.0334734605275632

b1 f8 [1, 64]
00000000: 0660 d9fd 4541 9c3f 6107 ac91 aef5 d2bf
00000010: d3b8 2d8b da93 33bf 6065 8c79 8659 b7bf
00000020: fa2f 3436 ae6b 74bf 3a12 8940 9639 b23f
00000030: 014e 8b79 4458 c5bf e805 66e7 94a1 753f
00000040: d6d5 5a94 efdb a33f 658d be75 5493 893f
00000050: 301b 9750 57f2 893f c980 4a60 67ca ac3f
00000060: a1fb e709 5c76 8fbf 21a5 6c6b 2d3a 9b3f
00000070: 7cfe 207f a407 873f 9030 6785 e574 8ebf
00000080: 6b28 9852 0f76 a1bf d549 d9cd 4acd 73bf
00000090: e851 4ddc 04e3 ca3f db45 f676 0268 81bf
000000a0: 9181 8ddd 4e66 8d3f ef53 22e1 4d9d 78bf
000000b0: 4a5c 8405 695f 9ebf b636 a2cd 6fde 92bf
000000c0: 10a9 9d2a b48e 9f3f 5785 fa81 498b b43f
000000d0: 41cd db27 4e2c 953f e7c0 61cd a2a2 843f
000000e0: a5f2 4274 42b7 9b3f 1fbb a42e 4269 823f
000000f0: 7d57 2ade 54f9 7f3f dda3 be90 88c2 af3f
00000100: 9b39 5ea6 1473 563f 1ee8 efbb 0530 8ebf
00000110: 1ee1 07b8 3e14 76bf 8e1f bceb 06c5 793f
00000120: 94b2 68c9 ff23 ad3f c1be 153e 146f 903f
00000130: 8381 9361 b562 963f f881 886c 3d0b 9c3f
00000140: 26f5 a091 72d3 a43f ab4c f925 fc27 a3bf
00000150: e045 a503 4c99 95bf 406b ed1e 8872 6ebf
00000160: b0d2 8ae8 c080 a73f 6de0 ea38 b4e3 643f
00000170: 5083 c0e4 abfa 79bf c736 8b37 e82e b33f
00000180: d512 52df e816 b03f 9475 cb89 dcbe 843f
00000190: 3d85 75a1 7bfd b03f a9b8 f60f 8f9d b43f
000001a0: 6ce2 1d6a b67c 73bf d2ec d4ea 7a9e a33f
000001b0: b47e abb3 da10 993f 236e 938c 47ee 993f
000001c0: 577a f47f c83d 803f bc62 d31f d9e8 68bf
000001d0: f10d 1500 55d6 933f 18c0 c07c ae5c 89bf
000001e0: 1592 f8b6 58d1 6d3f afdf a44c 1235 af3f
000001f0: 0b09 ab56 b8b9 6dbf 8391 036a df38 9f3f
0.027592748278351585 -0.2962452337816242 -0.0002987297586319996 -0.0912097975491597 -0.004985504641137334 0.07119120669910553 -0.166756209705099 0.0052810494001973365
0.03878735242816915 0.012488040774605033 0.01266926016513778 0.0562317185442694 -0.015362471630394671 0.026589116746582712 0.011245045785585044 -0.014871400006903707
-0.0341038502047731 -0.004834453776839405 0.21005306965766057 -0.008499163871223672 0.01435529340386735 -0.0060093919911610024 -0.029660836183293328 -0.018426653791314883
0.030817809201303226 0.08025035308175653 0.020676823790336533 0.01007582844997086 0.02706626734355901 0.00898982720226865 0.007806140437102258 0.062031047505406646
0.001370210805791672 -0.014740032956968515 -0.005390400882326922 0.00629141524746747 0.05691527684789324 0.0160487330335275 0.021860918121889405 0.027386626958220334
0.04067571666426266 -0.03741443599269564 -0.021092593882093058 -0.0037167223558020324 0.04590418661738249 0.0025499839751681936 -0.006342574557522365 0.07493449550676266
0.0628495736328419 0.010129664378321114 0.06636784259673774 0.08052915706386678 -0.004757607037270444 0.03831848255728122 0.024478356567554996 0.025323026614257792
0.007930342106701333 -0.0030407181462631366 0.019372299318332457 -0.012383807356030771 0.0036398632726266735 0.060951778274499595 -0.0036285972940685077 0.030490389676644646

w2 f8 [64, 32]
00000000: b45b 799b d2bf b53f d280 a2d4 600a bb3f
00000010: af73 4799 b41e a6bf e1c0 bfa6 13ed a8bf
00000020: 0ac6 61fe e8f2 b73f 2b15 0650 1fd5 b4bf
00000030: 29a3 ddd4 9d22 b0bf 65b9 a1b1 5bf0 9cbf
00000040: aa73 5f64 b2aa b8bf 4b92 01b9 0dd2 973f
00000050: 918f de7a 9a81 b63f 0db8 c8e6 f7fe b2bf
00000060: 9a62 a94c 3728 933f f5a5 8079 decd b8bf
00000070: 8602 857e 709e a8bf cf16 8fac 8615 c0be
00000080: 955c c4a4 cb38 c73f f459 afcd c506 95bf
00000090: d0bf fe98 02c6 bebf dc5a 0772 2b80 a33f
000000a0: 4794 a586 fd23 a03f 7baf a581 a05a a0bf
000000b0: 6d2d 17a2 77b2 8cbf ce24 fbb7 6c71 613f
000000c0: 6531 cc07 e12b a2bf 7e2d caac c8eb b63f
000000d0: bda1 b005 e629 983f 107d 3021 fff2 c93f
000000e0: 64fb 768f a31a 99bf e8cb a8db 815f ab3f
000000f0: 5fd2 c2bd 0c3d b93f 575e b835 4c70 bd3f
00000100: e8b3 9af6 c565 b7bf cbe0 448e 12b7 d73f
00000110: de79 3abf 4dcf 623f 014e 7177 160e c73f
00000120: 0b16 83fc c877 b93f ebe9 c8fd 2dd9 ae3f
00000130: 1fec 8817 b773 b63f 5dc2 d11f 4716 a7bf
00000140: 9305 9cd7 d9b0 b2bf 9cb5 bea2 38a1 ca3f
00000150: 7d4f f229 4b98 cb3f 9b5a 2a28 4301 af3f
00000160: ab7b acfa b21d b2bf 79cb a2f9 4054 b1bf
00000170: 6069 439d 1ef1 ba3f 2c3a 69ce 8fa0 bbbf
00000180: 2327 c1fa 1c31 d13f 2642 7a1d f736 ad3f
00000190: 04ae d465 e010 8a3f 9d8b a541 c979 743f
000001a0: d7df c443 8f4d a6bf 4a51 afcb 2d8f 9b3f
000001b0: cbfe 7d62 4e2b a63f 4bcd 398a cedf bebf
000001c0: 6dfa 708e 8981 b5bf 668c 36ea 6e7c b0bf
000001d0: d8e1 e9ed db29 81bf e3fa c8ac 36f9 cc3f
000001e0: 6eed 2745 f802 94bf b12f d3a3 0d11 a63f
000001f0: 8199 1693 bba5 a6bf 22ef 6835 e5fb 97bf
00000200: 241b 9189 d431 b6bf e62b 2e52 abea a0bf
00000210: 34d5 0b38 4555 b7bf 8c7a e14f fe8c b93f
00000220: bf2b 444d 269d a7bf c527 37f8 7240 b43f
00000230: 4303 2d66 d4e2 a8bf 2eb0 690f f0c7 a3bf
00000240: 8674 57cf e71f 87bf 9eb2 1c06 02fd a23f
00000250: 2d24 6d87 d26c a83f 04d0 edb3 6cff ba3f
00000260: 67fa 0274 b0da af3f 90df a5e5 92fc b3bf
00000270: 25d4 77a7 b49f b23f 76f1 005d 10ad b1bf
00000280: 2e62 77ca 3be4 58bf 1862 42dd 51cc a0bf
00000290: 0df8 2846 b728 b7bf 5101 1ac7 3803 b4bf
000002a0: 63ea a3a2 27fb b4bf 8c63 7cb7 6dc7 a03f
000002b0: 1545 a650 a9f7 acbf 63a9 e85a 74d0 b33f
000002c0: 4f7c e81f b978 b83f 97b6 3b96 5ebe b13f
000002d0: 6799 e5a2 02c0 9b3f b4ce 9a09 956f a13f
000002e0: 5683 a286 42df b13f badc 71f9 ee88 a93f
000002f0: 6dda 0e23 405d b7bf 28fc 3382 8e2a b23f
00000300: 728f 9368 b290 913f 0209 9441 99fb c73f
00000310: 1e56 a933 098f 813f 5fdc 5313 7aa5 7abf
00000320: 7bb8 7033 ca9c c43f 0822 782a ecbb b83f
00000330: 179d 61cb 20dd a1bf 7018 00bb 248f b1bf
00000340: e3c6 9805 f236 9dbf ba99 c710 15df c03f
00000350: bedc 7b90 3386 af3f 98f8 f08d 93ac bd3f
00000360: b5f3 a188 63c1 b23f 64b3 afd4 1576 abbf
00000370: 9bf1 33e9 8b28 923f 8f11 b9b5 8fa2 a13f
00000380: 7a99 8d1a 4aba cc3f 2a4d 44be 4243 b7bf
00000390: 468d 334a b881 b13f 2802 5b0c 895d a33f
000003a0: fa5c aabb eeea b2bf fbf8 fb67 a934 bb3f
000003b0: 719b ffd9 faa0 b03f 4d3e 2a52 77e8 85bf
000003c0: a6e7 3cd0 5a37 bbbf e813 0dc9 17a0 b13f
000003d0: 3fda e0c9 04dc a23f 4c40 597b f613 b03f
000003e0: 43a4 05ec 0cd7 953f e725 9942 d62c b5bf
000003f0: c5b3 d1b6 8f0f a3bf 3cee 2b35 bd85 b63f
00000400: aaa2 4151 c662 b4bf f3f3 6a19 c984 9e3f
00000410: 7ade 4cf0 e12f 9abf 3f8c 9dc0 95e8 b2bf
00000420: 2875 0e06 4d34 b7bf 09f2 408d 904c a7bf
00000430: 98c6 b64b e20e 40bf 3fc7 23e5 934f a23f
00000440: ce00 3d82 40b8 a5bf e708 be51 2ba8 b1bf
00000450: 69f0 3ff0 6ead a93f 4472 4fa3 3d6b 9c3f
00000460: 21ca 7f01 cdbe b6bf 0765 8266 6725 b0bf
00000470: eff6 2ede aaea a5bf 6f02 3c6b fbc7 90bf
00000480: 3f55 8145 27f2 a2bf 26e2 e790 4e96 a1bf
00000490: 3288 0af0 9bf9 703f 0dec f9b6 290e a9bf
000004a0: 68c9 5263 63f2 a4bf 4cf7 fcc1 ed03 b1bf
000004b0: df5a c6a6 65f8 a03f 1547 cae7 6634 88bf
000004c0: f6e0 c665 c44b 96bf c9e9 d9d5 038c a83f
000004d0: c6e1 6bba 4769 a93f 9ee3 207d a9e6 b23f
000004e0: feff 2249 892b b33f 5f2a c7d9 90bb 9f3f
000004f0: 46ff 6892 d2cb b2bf b428 5454 c61b a33f
00000500: eeaf 23a4 39ec 8cbf 0e0c 245a c1d9 c33f
00000510: 4f14 86f1 081f b03f 5bd9 feb7 6065 923f
00000520: a0ca bee3 ea34 923f e6fe ad5c 8e5a b7bf
00000530: d63d d1b5 8b98 a5bf 4634 28e8 a9d7 a8bf
00000540: 8a50 5813 80f0 843f 9448 556b 57ca b8bf
00000550: e1c5 ba58 ad8b 8c3f 295f 12f1 6339 a33f
00000560: ff73 06a4 df17 b73f c2dd c171 156a b23f
00000570: a0f8 0f5b 6883 bdbf e381 81aa 585b b7bf
00000580: 7831 00bc 309d ba3f acea 52bb 32d5 babf
00000590: b3b2 259e 6644 433f f112 66d2 a105 9b3f
000005a0: c336 ca32 e146 babf 6a13 0e7a 9f5c b0bf
000005b0: 9454 1e8e ff92 96bf 9742 60d6 e5ca ad3f
000005c0: b09f e332 e84e adbf 5419 fe2f f8be a73f
000005d0: 4ad8 c76d 97ef 97bf 98b1 c515 111b c33f
000005e0: 1e89 487a 6ba5 b83f 9c6d 3d5d 7bf9 a93f
000005f0: f273 04e9 f915 aa3f e77a 122c 0d75 b63f
00000600: b10f 9b53 7988 91bf 7263 e265 d579 c23f
00000610: 05c3 16be c647 973f c5c5 ddac 696b b63f
00000620: 5a0f c612 f116 b43f 0f18 9666 1a4b 993f
00000630: 15bd fa70 2fb4 6b3f 858f 16ba c9e3 a23f
00000640: b4dc 81ca f284 9b3f 193a 4f94 3baa a63f
00000650: 5141 f4cb e427 c73f 84c5 0157 c235 a73f
00000660: 748c ba2a e1b4 91bf e3df 4f0f 6e7c b63f
00000670: 6218 b10f 4a4f b0bf a40f 6b80 9a38 9ebf
00000680: 8604 7ec5 b39c cd3f 6859 03aa f544 bfbf
00000690: e2d4 3325 7867 a93f 33c9 3662 7322 a53f
000006a0: c716 9a18 1658 8f3f 3c0c 6eda 555d 9a3f
000006b0: 6d26 c813 0351 723f a0af 39e9 f59f b5bf
000006c0: 87d3 ec7e ff5c afbf 5925 2086 e6b0 b9bf
000006d0: d3c0 15d4 9db6 a1bf ffd8 0a5f bfed c13f
000006e0: 8b3a 91e1 5544 a4bf ea47 205e 481c b13f
000006f0: 366f 411b 2146 6d3f c88e fb35 57c8 a7bf
00000700: 3f58 7053 4adb ad3f 2a0b 5e9d 109d a33f
00000710: 2ab8 58a9 15ba ad3f a16f b8cf f8b8 9cbf
00000720: 4320 8442 7d50 9cbf 1344 7804 a30d b43f
00000730: a559 b584 a8fd 9b3f f33b ec52 9978 a9bf
00000740: 76c6 c27d 64b8 b9bf cb91 f195 720b b0bf
00000750: b43b e0f6 2026 81bf 3d2e ba14 32e6 82bf
00000760: 48d1 96a6 2620 95bf a31a d985 422b ab3f
00000770: 84dc 166d 2296 b6bf 9de8 7a6a e2fa acbf
00000780: 8f88 37fa e9e9 9bbf a685 347b 12b6 b23f
00000790: 6de4 8beb 1bfe b53f 12ab 9e71 126c aabf
000007a0: 22cc 61e8 90a5 b0bf 3bc1 f741 518d aabf
000007b0: c803 3be1 b108 66bf c7e5 9dd1 1952 b0bf
000007c0: 1cd4 a2df 9d8f 58bf 3e68 e7b8 34c4 8b3f
000007d0: 837e f58f a1e7 abbf a6ca bb16 be08 933f
000007e0: b6f9 67a0 5401 74bf 2023 dcd9 4473 b7bf
000007f0: a83a f7a9 3bb4 b1bf 9a20 6073 d943 b2bf
0.08495823188546475 0.1056271094444157 -0.04320301409800408 -0.048683752160174405 0.09355026445862094 -0.0813769884462842 -0.06302820631902918 -0.028260643688946447
-0.0963546271372723 0.023262228409651347 0.08791509151211431 -0.07420300850273538 0.018708099416786618 -0.09689131227846544 -0.04808379692486135 -1.9173724905310634e-06
0.18142076058640969 -0.020533648184789713 -0.1202088950656155 0.03808723227455399 0.03152458447110767 -0.031941428972316076 -0.014012274393187163 0.0021292804156912487
-0.035491020395144436 0.08953527658939284 0.023597330186164934 0.20272816773010804 -0.02451568186892973 0.05346303755177201 0.09858779557073082 0.11499477683570923
-0.09139668722737293 0.3705488576265565 0.002296115731794431 0.18011742431791336 0.0994840256199369 0.06025069926223011 0.08770317387181635 -0.04509184134883946
-0.07301103128340562 0.2080450815823668 0.21558513210458932 0.060556505826004435 -0.07076567287411588 -0.06769186110140692 0.10524169291912733 -0.10791872777301909
0.2686226319097946 0.057059976909958274 0.012727501971844475 0.004998956830919801 -0.04356048300036235 0.026913371617255856 0.04329915001198755 -0.1206025207009606
-0.08400783279010123 -0.06439870088665742 -0.008380621145293185 0.2263553947140827 -0.01954257890791438 0.043098856208956156 -0.04423319025527218 -0.02342184198845055
-0.08669784887852622 -0.03304038408449354 -0.09114487284007994 0.09980763864721548 -0.04612083142463729 0.07910841522166752 -0.04860557315124094 -0.038634778863383054
-0.011291323676170483 0.03708654713259317 0.047705248862776585 0.10545997040554772 0.062215341722084365 -0.07807272059096548 0.07274941528869812 -0.06904699583623661
-0.0015192588706353194 -0.0328088362304621 -0.0904650255479 -0.07817416058424455 -0.08195731850347836 0.032771519325428405 -0.05657700643053879 0.07739951343015643
0.0955920889759778 0.06931105773738931 0.027099648659168276 0.034054429457140684 0.06981292521460367 0.049872844648171946 -0.09126664024265958 0.07096186331544685
0.017153537400090575 0.18736568166793438 0.008573600663264232 -0.006505467278876769 0.16103484641775254 0.0966174701390018 -0.03489019854242253 -0.0685904461425666
-0.02852991255912841 0.13180793113060735 0.06157075060576166 0.11591455664981465 0.07326337896115727 -0.05363529416340532 0.017732797726226584 0.03444336980149664
0.22443510338343825 -0.09087006707368475 0.06838561832005494 0.037822993047943065 -0.07389728624035632 0.10627230442694106 0.06495635816791691 -0.010697300143220146
-0.10631339630063383 0.06884907396768336 0.03683485950789533 0.06280460845414487 0.02132816496433444 -0.08271540761884176 -0.037228098933020294 0.08797819660315381
-0.07963218196676772 0.029803411651972266 -0.025573282520069608 -0.07386146500134404 -0.09064179799903072 -0.04550601696289298 -0.0004900555572275476 0.03576337978473853
-0.04242135610411567 -0.0689723085943431 0.05015131647812227 0.027752841084167437 -0.08884888922310853 -0.06307073834104325 -0.042805995580676874 -0.01638787118918333
-0.03700373385860666 -0.03434987563008844 0.004144295817839748 -0.04893617971989537 -0.040911775469242795 -0.06646619783438473 0.033145119293455975 -0.01181869883410828
-0.021773403846709415 0.04794322953690117 0.04963134909297966 0.07383212380308499 0.074883060794491 0.030988944332231202 -0.07342258524385867 0.03732127932933463
-0.014122438737523137 0.15508286382109343 0.06297355553222526 0.017964850645250646 0.017779989386051853 -0.09122552645385049 -0.04217945665788718 -0.048520383443339685
0.010224342909204393 -0.09683748598516423 0.013938287992774913 0.03754722898264468 0.09020803217431704 0.07193120982434834 -0.11528637145235843 -0.09123758471242342
0.10396103467809847 -0.10481564591729392 0.000587988001183945 0.026388672320098065 -0.10264403810489413 -0.06391331415040971 -0.02204512886926986 0.058188612383792186
-0.05724263783650885 0.04637885652396059 -0.02337490661189915 0.1492635113057872 0.09627410636361275 0.05073152077849416 0.05094891519022572 0.08772356344205044
-0.017122169235122168 0.14434306597538754 0.022734742500406763 0.08757648916596057 0.07847506244985195 0.024700558196421748 0.003381817492332249 0.03689413448890292
0.026874345407546144 0.04426752267282925 0.18090496023843142 0.04533202468963807 -0.017291563256219125 0.08783614991978043 -0.06370985873317772 -0.029512800300622324
0.231344672614828 -0.12214599037847551 0.04961753324634245 0.04127846311475238 0.015304730058470451 0.025746671158696652 0.004471790333363407 -0.08447205490091259
-0.061256393665110535 -0.1003555371718411 -0.034596378459242814 0.14006797924748324 -0.039583858285017724 0.06683780954361365 0.003573479329174757 -0.046450352992705
0.05831367748776061 0.03830768509853606 0.05806033794611694 -0.028049361875772786 -0.02765079229814683 0.07833308085561468 0.027334817027929188 -0.04974822175255857
-0.10046985693295504 -0.06267467652066398 -0.008373506101660634 -0.009228125817819616 -0.020630458753389008 0.05306442150008663 -0.08822837031662983 -0.056601596353588614
-0.02725949849799086 0.07309070117891867 0.08590864658971649 -0.05160577427826331 -0.0650263373698157 -0.051859416296681414 -0.0026896928992248027 -0.06375275962445591
-0.001499084638038945 0.013557826893635046 -0.05450158006965202 0.018588037622019236 -0.004884081432918233 -0.09160261458249552 -0.0691563882785241 -0.0713477999380551

b2 f8 [1, 32]
00000000: 1bc9 a2a8 4348 7dbf 1add 4814 ca4d b2bf
00000010: 6d43 d85d ccdf 8e3f dea3 5b47 3fb7 a9bf
00000020: c673 2801 8d50 3fbf 097b bb9a c46c b63f
00000030: b22a 5390 c7a4 68bf 487f 7f5c 950b a1bf
00000040: eba8 2989 3298 6dbf c20b 559e 012a c1bf
00000050: 01aa 4e5a f45e a5bf 7d64 526b 5be6 993f
00000060: 7ee6 74ee 8191 76bf 9bf7 fd9e c36d ec3e
00000070: cb1d 4ef0 ef5b b43f 097b 2dd8 690d a93f
00000080: d435 840a a122 a4bf c89d c491 64ac b63f
00000090: a1ea 84a5 bbcc ac3f cc6a 90c6 ec4f 963f
000000a0: f96c 92ea 4e9b 82bf 0543 3b9e a335 87bf
000000b0: 7e8e 854b 3ba1 90bf 2586 fcc8 cb09 c33f
000000c0: b0a2 1280 eae6 b23f 7457 63ed 16e8 babf
000000d0: 68e3 b32e 03aa 75bf 9f7e 2090 c395 a9bf
000000e0: bfec 3fea 2fe7 9bbf 51ae 9365 806a a2bf
000000f0: 4b38 8e2b d442 9c3f 18a1 e840 0b44 a4bf
-0.0071489947242062936 -0.07149947161893913 0.015075298894801492 -0.05022619005269012 -0.0004778236626934964 0.08759716775555772 -0.003008260510431648 -0.033291499654068135
-0.0036126124407945734 -0.1340944312197206 -0.04174007036575134 0.025292805123716 -0.005509860558328248 1.3555892081514554e-05 0.07952785126518973 0.04893046153914866
-0.039326698812242405 0.08856800612249238 0.056249488787633035 0.021789264315979648 -0.009085289510315496 -0.01133277727731886 -0.016240049824217888 0.14873645128049975
0.07383599879052372 -0.10510390563589828 -0.005289089614273525 -0.04997073301660503 -0.027249096558062954 -0.03596879234268314 0.027598681600970825 -0.03958163421003941

w3 f8 [32, 16]
00000000: 6746 a52a 1112 8c3f 79c9 c21a 19e8 b63f
00000010: 47f2 b37e 5c5c 88bf f1a0 03c8 fce7 bbbf
00000020: 90e6 9f2b 7dcc b23f 8bf5 624d f5ac 8bbf
00000030: ec3d 585c 9225 b43f e3ef 6dff 0bdf a2bf
00000040: 0299 a2fc 67f2 bcbf c1ce ca1e 5582 b53f
00000050: e4bb c453 61d7 b73f e51e 2b15 c18e fbbe
00000060: f4b7 b74c 105c bdbf 9bb4 ea80 ca42 be3f
00000070: 1030 9131 8de1 ae3f 7d5e f95c 8f80 be3f
00000080: 33a5 e394 92ed d93f 6afb 43c8 dfc1 a63f
00000090: 2dbf 0506 0beb af3f 0c6f 0462 465c b7bf
000000a0: d125 98e5 8fa4 a7bf ba7e 6053 ae8f 803f
000000b0: ecf0 a16a 54a2 61bf 3537 54bc 22cf d33f
000000c0: 99a3 2e51 4468 a53f 9c8c 5c30 f9f2 c83f
000000d0: b552 e425 fa75 b93f 6791 398f b3c6 9a3f
000000e0: c2a5 e6c9 7836 d43f 1d72 d22a bf68 b9bf
000000f0: 9098 1215 88cd db3f 4107 2a00 ae99 a6bf
00000100: 1755 06e5 08eb b13f 1cc0 1773 5150 c03f
00000110: bda6 0b90 bf00 b13f 682a b5ea b777 c03f
00000120: 8684 355d 9c9e 9fbf f2dc be72 441f 90bf
00000130: c6ea 95d8 3c6c c2bf e422 7a02 2630 86bf
00000140: 2a76 656b f02a b4bf b004 9355 228e c23f
00000150: 004e 9274 69ac b03f 00df 0eef 6e60 c33f
00000160: 3cea 5621 612a 773f 1ccf ace7 00f8 b4bf
00000170: cb3c c46f be2c b1bf 982f 8a20 c93d b13f
00000180: 5aa9 bc3b ac2d bb3f a622 c4fa 9dae c63f
00000190: 75cf 4c08 7d2c a9bf f44f b19b aa50 c2bf
000001a0: 7a53 51b0 cc0b b2bf 60ee 91d9 0125 9ebf
000001b0: 184e ee62 cc91 bf3f 0bbe ba65 faab a43f
000001c0: 9b9d d16f c944 c0bf 0222 7e13 b738 be3f
000001d0: 95a4 75e1 23f5 b33f 394a 0257 0b20 973f
000001e0: 57f7 d600 1ef1 b33f d4fd 824f cb0e b53f
000001f0: 027e d0fe 4c29 d13f 0fc1 617f 10e0 af3f
00000200: d487 cbc0 d044 d03f 7f69 94c8 6a28 96bf
00000210: f833 0135 169b bd3f 3ac1 bc5d 94e9 bb3f
00000220: 8826 0b3d 5e63 b33f aad9 e066 abfd bfbf
00000230: d03f 93f8 4c07 c0bf 95bd e966 8ecd be3f
00000240: ecd5 2c0c e2db b0bf cfc4 579e 6324 b33f
00000250: 1771 0ea3 24e9 85bf 2da9 4055 fdd9 a73f
00000260: acc6 7cbf 8a39 963f a827 c913 dd33 b1bf
00000270: 62a1 4bc8 de3f d03f dfcf 1639 123c 86bf
00000280: 858f 9623 8aad b9bf 8485 e193 1dc5 5ebf
00000290: c846 a131 8397 c2bf 3c5a e31b 26d3 b73f
000002a0: acb4 30b9 2b8a acbf 2605 a71e 6246 a53f
000002b0: 71ce 2e03 6829 a8bf ec21 c840 0580 b5bf
000002c0: 0a1e ed3a dbac b0bf 8cfa c6ea 162a bc3f
000002d0: 073b 32ed ccb3 b83f 7b63 6c90 1c1e c2bf
000002e0: e097 a30f 7cd5 8cbf be63 9450 75fc ae3f
000002f0: 6ea8 80d0 4cd7 c4bf 3b71 21d7 e264 c13f
00000300: 09bb b383 0391 ad3f d442 e755 f53a 98bf
00000310: 4fd4 6dc5 4265 b53f 102a 1af6 0389 c0bf
00000320: 6239 53c3 3ccf 813f bd51 7a70 1972 b1bf
00000330: 6d74 ac44 babb b7bf a1fd 3e79 76fa 883f
00000340: 46ee 5a6a 9de9 aabf 37d5 cfe2 d864 b6bf
00000350: 2b46 db31 ec25 963f 18db 76ca 0f8a b83f
00000360: babb c036 f07b 983f 3410 2450 8429 c23f
00000370: c1e8 d724 e2c7 babf d36a 7891 cdc3 a1bf
00000380: a2b2 4d1d 69a2 b7bf 56ec 2072 cf41 a8bf
00000390: c012 cfb7 2b71 a73f 3506 3526 ad89 813f
000003a0: 7b84 c0b2 fb02 bdbf 975e b644 4a81 b0bf
000003b0: 8e69 66ec 01a8 b43f 0f4d 86e2 b162 83bf
000003c0: 9381 315f 969a 8dbf 21dd acbd 8e73 b3bf
000003d0: 73f9 fecd fa68 b03f 6889 f589 d827 a93f
000003e0: 1040 9c6b 9775 713f efaf 775c 059a a83f
000003f0: 6165 1248 5e63 afbf bd02 0f44 1323 b53f
00000400: b9ee 7768 11d7 4cbf 088f 9851 d181 c2bf
00000410: ee45 2e3d 9969 c13f 69bf 9640 8f89 b3bf
00000420: 492f 083c 5f5a b23f 0f23 8459 3964 c0bf
00000430: b668 928f ce2a c03f 7249 f49a 4e6b a3bf
00000440: 5807 dca7 45d4 aabf 0cf5 4325 16e1 923f
00000450: f4d8 e24f 1197 babf ada7 c643 1216 90bf
00000460: f57b 6e88 cdde 9e3f b052 1eb4 11c1 903f
00000470: 4447 006a a531 be3f ba4c 1724 17ae a03f
00000480: aa59 9461 6002 cc3f c4d9 a98b da99 a53f
00000490: b8a6 c4cc 038d b53f e025 8a65 982c b0bf
000004a0: 91c6 b8bc 24e8 b63f 0a8a 4be4 bafb b1bf
000004b0: 978f 22fd 87d9 a23f 6c37 9fa9 ef20 d03f
000004c0: 4387 de29 e8a3 5abf de72 c8df 29ae c53f
000004d0: 17e6 e02f a043 a7bf 69f3 514b 9db5 b83f
000004e0: 3bd5 bc93 ec6f 9e3f f2cd 0896 b5f6 ad3f
000004f0: 6e0f f1d5 351d d53f c667 8e10 acff bd3f
00000500: 921b dc3a 0a3f ab3f 1970 1f1b df4d a2bf
00000510: 2052 4634 43b6 cc3f 0d79 4cdc c01b ab3f
00000520: c65e 69cb 4dc4 89bf 05cd c099 2950 c1bf
00000530: dc17 8d33 5782 91bf 1d9e 769c 97f5 cf3f
00000540: 4a6c 3732 d071 c2bf 44ff 06c6 805a cb3f
00000550: 8d18 ed48 2684 b9bf 2f0a 63f9 1d6a 7d3f
00000560: cf54 ff29 4afe b73f acec cf47 4f08 9ebf
00000570: 6b46 0d48 3693 d23f aebe 88a2 1dae c0bf
00000580: 97db 19d9 b08f 923f a550 6d45 9f6a c33f
00000590: 99d0 6cc4 7cde a93f 0a21 d56a 12e6 bebf
000005a0: a862 e1d2 3b1a a4bf caab 90b1 6db6 b4bf
000005b0: 4965 9a5d 37a3 913f eecb 85ad 23ce c13f
000005c0: cf04 9e64 e781 b43f ff8a a49f 57cd c33f
000005d0: c0ce f9e2 efb2 c2bf e87a c4af 2e26 babf
000005e0: 9e17 8b7d 3fda a83f 97a7 8653 be08 74bf
000005f0: 07e8 18ed 4341 a4bf 593d 9289 9096 85bf
00000600: be19 5baf 099e b43f 64d5 58e6 aeac aabf
00000610: 0ad9 a460 9507 b73f b65f 81fb 47ca 7b3f
00000620: 88de c6f6 c13b a0bf 1294 4028 0c38 babf
00000630: a7a2 9826 bac4 b1bf f3d6 ab41 4a4f bbbf
00000640: 418c ea19 8197 c0bf 0648 5b52 360f 803f
00000650: b081 872f 5b7d b6bf 608b f25e e422 b43f
00000660: 73fc 33e2 c2bb bbbf 5f4b f6ca 9fd0 9dbf
00000670: e53a 7aa7 ae7c 57bf 718a 0c79 9d5f b73f
00000680: 1e50 588a dd7d b5bf f1bd 5fa1 3d7f b2bf
00000690: 37c1 ad58 a628 ab3f 5d28 f1e1 5de4 bfbf
000006a0: d31e 775c 7d7c a4bf 6c1b e992 6a47 be3f
000006b0: bdda 7d60 9646 bebf 9a5b 17da 3c44 c23f
000006c0: 9b22 4b0b c0a8 b63f 63e8 2389 ef0d 74bf
000006d0: be10 b241 7b51 98bf b830 d9d8 5380 b0bf
000006e0: b00f 9722 75a8 b33f 0809 fadc 12cc b83f
000006f0: d354 d07d c549 acbf 4f60 2789 906f a23f
00000700: 167f dcdf be61 b9bf 1293 d861 0849 c2bf
00000710: 033b f028 dcb0 a0bf d9c3 0592 d026 9abf
00000720: 41c4 440f 81d0 b8bf 52c1 5669 e31c b4bf
00000730: 748a a797 8437 b03f 5ad3 2817 f56e 913f
00000740: 96d1 48f6 e8c2 903f 5111 ecd2 599f c1bf
00000750: 0b25 746b 71e0 a4bf dd46 af5c fb26 8e3f
00000760: 7483 7c59 df24 c9bf 3d05 b649 1a38 adbf
00000770: 4e64 ffdc d7e7 9cbf 5774 0c0f e316 733f
00000780: e386 a28e 2d57 c0bf 956e 6793 8ed3 b83f
00000790: 733c bd74 76d9 4fbf 0a21 581d 9a77 873f
000007a0: 636d 8010 eb84 c1bf b290 7d38 7e20 88bf
000007b0: f69c c12e f9e2 853f 39a8 e8c0 3dcb 6b3f
000007c0: 3337 052e 6e96 b5bf a633 369a a342 bfbf
000007d0: 7dd9 57b3 7b5c 5b3f 5736 6315 2514 aa3f
000007e0: f285 a1c4 2cce a53f 59d3 be43 91ff b43f
000007f0: 9833 aa50 f809 c8bf 62c6 6071 aa1a 9e3f
0.013706335176411245 0.08947903540937387 -0.011894915215173841 -0.10900859721334989 0.07343275370649338 -0.013513485359335295 0.07869829897412445 -0.036857962541915666
-0.1130738250527408 0.08401996614230269 0.09313019080285262 -2.6281007488275927e-05 -0.11468603013028639 0.11820665023215542 0.06031457166736243 0.11914917011142197
0.4051252798077087 0.044447892376402745 0.06234011124149528 -0.09125175374031985 -0.04617738416352391 0.008086549682104194 -0.0021526001701755917 0.30951755897045824
0.04181111804002242 0.19491495953943605 0.09945643830389879 0.026148610703232402 0.31582469670192037 -0.09925455851993843 0.43441965158343354 -0.04414123298648898
0.06999259559082237 0.12745111579670343 0.0664176680253616 0.12865351639114242 -0.030878489674595964 -0.015744275573266138 -0.1439281518504087 -0.010834023428530633
-0.07878019926052873 0.1449625890582289 0.06513079734786942 0.15138041184194861 0.00565565053460176 -0.08190923362854757 -0.06708898762393571 0.0673490242426723
0.1061656614153085 0.17720389122429941 -0.04916754461592535 -0.1430867443292524 -0.0704925470793806 -0.02943804636423264 0.12331845679573694 0.04037458888830877
-0.12709920844939124 0.11805290437599328 0.07795929197677005 0.022583176789860302 0.07789790649891636 0.08225699130252134 0.26814579853268594 0.06225635104135751
0.2542001612438274 -0.021638554088988734 0.1156476859479908 0.1090328911639106 0.07573498716660698 -0.12496443998029486 -0.12522279870472497 0.12032403957868205
-0.06585514828915223 0.0747740041331497 -0.010698591447913004 0.04658500352555204 0.021703880250419402 -0.06719762547541441 0.25389833030796727 -0.010856764189931254
-0.10030425423479812 -0.0018780506939254102 -0.14524879382456946 0.09306562596189222 -0.05574165950415852 0.0415526068131931 -0.04719090498784063 -0.08398468810640453
-0.06513757885579011 0.11001723510615075 0.09649353781626867 -0.1415439324562405 -0.014079064585938939 0.06051985367429989 -0.16282043629445603 0.13589129928994645
0.05774699194613759 -0.023662408226132595 0.08357636756939367 -0.12918138043126293 0.008696055136536433 -0.06814726825752522 -0.09270824600794621 0.012196469855438265
-0.05256359027177075 -0.08747630631826984 0.021629038374902414 0.0958566541001854 0.023910287229394568 0.14189199364784744 -0.10461247825142818 -0.03469698334466433
-0.0923219391385808 -0.04737709301158392 0.045785299480063824 0.008563378075112297 -0.11332676996291184 -0.06447281053112373 0.08068859120832014 -0.009465589261515221
-0.014455008297034755 -0.07598201876395595 0.06410186318587367 0.049132124748910766 0.0042625346047913265 0.0480500865340615 -0.0613049948671669 0.08256645595157415
-0.0008801302910223719 -0.14458672031570807 0.1360351132139352 -0.0763177426040308 0.07169146743416123 -0.12805859442621467 0.12630636225077801 -0.03792806283503837
-0.05240075754228596 0.018436761879447025 -0.1038676090273361 -0.015709195505827434 0.030146800472376573 0.016361500376279536 0.11794504011075185 0.032578204303399486
0.21882252468703928 0.04218943552853063 0.0841829657480514 -0.0631804702662957 0.0894797287699254 -0.07024734567270499 0.03681588139559649 0.2520102650131466
-0.0016259925100503148 0.1693775503817027 -0.045437818378968035 0.09652121628637435 0.029723831669987915 0.05852286774134176 0.32990785496462294 0.11718249706464609
0.053215331730874685 -0.03575036245430869 0.22431221058344963 0.05294611634438882 -0.012581451196794002 -0.13525886542775126 -0.0170987725462267 0.2496823801022722
-0.14409830524422979 0.2136994330339751 -0.09967269211219527 0.0071812792650143694 0.09372390294386722 -0.029328573949879796 0.2902351096755413 -0.13031359134901294
0.018126261950296287 0.15169134988776026 0.05052556894079991 -0.12069811924186893 -0.03926264714454436 -0.080908637858257 0.017224183166580507 0.13910337422166158
0.08010717588878723 0.1547040490632625 -0.14608572562030098 -0.10214511672209492 0.04854010016928999 -0.004891150915151152 -0.0395604350018886 -0.010541085432378127
0.08053646594189609 -0.052098718279391304 0.08995946511717903 0.006784707242410029 -0.031705914854169015 -0.10241771681519676 -0.06940806810656373 -0.10667862036992996
-0.12962354436339932 0.007841514957736006 -0.08785028372176984 0.07865741079380717 -0.1083337595227805 -0.029116150629828193 -0.0014335351569660312 0.0913027210740809
-0.08395180347025685 -0.07225403966707923 0.05304450829032919 -0.12457834974444056 -0.04001228097655276 0.11827722632106735 -0.11826457839729705 0.1427074494265213
0.088512423283769 -0.00489610260614812 -0.023748327145327812 -0.06445812267446882 0.07678920835957004 0.09686391730250332 -0.05525033150494498 0.036007420294197894
-0.0991477295433437 -0.14285378244053298 -0.032599334714282356 -0.02553869143725138 -0.09693152067917855 -0.07856580087423495 0.06334713652135254 0.01702483133177011
0.01636852267456986 -0.1376755027669199 -0.04077486454668574 0.014722789541255771 -0.1964377581544131 -0.057068654535223896 -0.02822816168177083 0.0046604985698453704
-0.1276604601344423 0.09697810267192104 -0.0009719684980867962 0.011458591480746811 -0.1368688421797329 -0.01178072557349483 0.010686823596371724 0.0033928114055657124
-0.08432663558525348 -0.12211058154043872 0.0016699989331506453 0.05093494306639162 0.042588614466477895 0.08202464965763791 -0.18780425966943137 0.02939859692577896

b3 f8 [1, 16]
00000000: 27c2 f6a0 acee af3f 8934 c2fa 44c8 503f
00000010: 6760 0a8b e7e7 a13f a367 4bff 7505 67bf
00000020: 802c 9069 03ce b1bf 35c9 4f80 24d2 30bf
00000030: e372 63b1 ae6b b03f 0fa6 1955 3688 623f
00000040: 9b4f f895 16c0 cc3f b2c3 d142 b25f 733f
00000050: 7e01 4e17 ac28 afbf 319a 4d4d eb54 a33f
00000060: f111 3a36 1875 b43f cc3a 03a4 0cf2 a2bf
00000070: d89d f743 7d19 b33f 6076 e52e 488e 793f
0.06236781563655241 0.0010243104580099102 0.03497241565963876 -0.0028102211602858015 -0.06954976393915224 -0.0002566660990047821 0.06414310293935048 0.0022622166805390596
0.22461206743957693 0.004729935009081853 -0.06085717949372603 0.037757256685655334 0.0799117214574563 -0.03700294019801262 0.07460768613201851 0.006239206281262705

w4 f8 [16, 1]
00000000: b743 2731 4624 e53f 85da 2db7 d7b6 cf3f
00000010: 7f28 c039 9237 d83f 98af 073c 8040 9bbf
00000020: 11f3 24e5 2870 c0bf 289c d049 eca1 c7bf
00000030: 6489 668f 8fcd d0bf 223f 82ab 4d08 e03f
00000040: 8676 03e5 b92e d7bf 238b 1cad 91da e13f
00000050: 998e f002 6923 cdbf 6240 8c0a 6fca d03f
00000060: e55c dba2 18dd dd3f 8b39 23d3 3e31 bebf
00000070: 0d7b 2694 b5f7 e53f 358e 8574 3663 a1bf
0.6606780014063734 0.2477674145154262 0.378391796490753 -0.02661323896784004 -0.12842284382522753 -0.1846289978431923 -0.26254643444021597 0.501013598421171
-0.36222693791010163 0.5579307919582316 -0.22764313357867108 0.262355575848238 0.466619643249443 -0.11793892531134113 0.6864879506646006 -0.033960057948914026

b4 f8 [1, 1]
00000000: c33d c69b c23f e43f
0.6327832262485845
