models/model_weights.npz (npz, 46462 bytes, 8 tensors)

w1 f8 [45, 64]
0	0xbfa1ac0732941b41	-0.034515595363748826
1	0xbfa476612242caec	-0.039965663368453835
2	0x3fb2e3f3449bd4f0	0.07379074502007987
3	0xbf9d96c87c93383b	-0.028895504573306346
4	0x3fb0fa61a5db0f58	0.06632051753245827
5	0xbfb448e3c39ba8fc	-0.07923720861041156
6	0xbfa11da78b223787	-0.033429370626534775
7	0x3fb1d5901d5a3c71	0.06966496197331808
8	0x3fa9573eaefc255a	0.04949375043913547
9	0xbf58f604315e65fe	-0.0015234986253517264
10	0xbfa69686d275ea0a	-0.04411717719172621
11	0x3fb2938996496d94	0.07256374281990069
12	0x3fa594b783efd727	0.04215024457509591
13	0xbf996f6d5f5a3d13	-0.024839123673300167
14	0x3fa25ffddabb5f66	0.03588860793178021
15	0xbf7089e89883a233	-0.0040377698680705175
16	0x3f982adfed62e901	0.023601054061807684
17	0xbfa728dd29fde5fe	-0.045233641982985504
18	0xbfae5af98273185a	-0.059287831472418076
19	0x3fb2c3c6849851d4	0.0732997964590319
20	0xbf979fda63b3a140	-0.02307072862177617
21	0x3fac5769db776b90	0.05535441211733094
22	0xbf7a1a7bc149dba9	-0.006372912805651256
23	0xbfa02a4e5d4af7c7	-0.031572770012175115
24	0xbf5e61a92a70a6d8	-0.001854338837583949
25	0x3fa3568c22ff281f	0.03776967932897456
26	0xbfa0da50916166a2	-0.032915609118117986
27	0xbfb57d9f40d48f30	-0.08394809086581456
28	0xbfb19fe770fb77f5	-0.06884619243962205
29	0xbfb22baac2c46a26	-0.07097880606708226
30	0xbfb443af765ede13	-0.07915779724032061
31	0xbfa1ac9758738c22	-0.034519891307148734
32	0xbf774e320c345264	-0.0056898074137917455
33	0xbfaf0fcbb462a091	-0.060667386789021845
34	0xbfa36b2dd0ba9c98	-0.03792708561859931
35	0xbf92b22dedc19ef8	-0.01825782550477492
36	0xbfa57b75e7e43157	-0.041957554394772494
37	0x3fb49a541a2afb50	0.08047986639847449
38	0xbfa8c48890624851	-0.04837443125246977
39	0x3f9b74aaf8ef160e	0.026812240070077258
40	0xbf965ef2bf114d8a	-0.021846573745575117
41	0x3f75de20c52bc951	0.0053387909017480065
42	0x3f81589a2a92abad	0.008469776558134823
43	0x3f6c33ad69afa2ce	0.0034426104516466
44	0xbfb879193324baa9	-0.09559781550044967
45	0x3fb3125bf33e5b5f	0.07449888886035926
46	0x3fb2fdd6bd63ceaf	0.07418577312256035
47	0x3f958670bcaa7e56	0.021020661845453446
48	0x3fb8bcceeddda6bb	0.09663098628302695
49	0x3f99ab4841915c70	0.025067452432577075
50	0xbf4a6a66d2c3cd60	-0.0008061410967727216
51	0xbfaa7a936d539366	-0.05171642980147943
52	0x3faf7a2f85bfaa2a	0.06147907741236154
53	0x3faa0493185f6645	0.05081615135686638
54	0x3fa52c84d33dcb44	0.04135527685766374
55	0x3fb4e0d1affcf3c3	0.08155546709617938
56	0x3f72645c7c1859d4	0.00449024321416976
57	0xbfb19c910b5f96b4	-0.06879526641531691
58	0xbfa30ffebe264926	-0.03723140784417671
59	0xbfa0f5440e0d5abf	-0.03312122985396603
60	0x3f9fab38ac264530	0.030926595217868058
61	0x3fb3e3a1a9695327	0.07769213090916748
62	0x3fa988706faaafeb	0.04986907351607769
63	0x3fb3eae71d8016c0	0.07780308218215293
64	0xbf95cab97b860d29	-0.021281145252499165
65	0xbf9a583f26dffd3a	-0.025727259395350567
66	0xbfb52ab689a9132f	-0.08268299923754506
67	0x3f921b232e09ae6c	0.017681646046567343
68	0x3fb24550e72699e0	0.07137017863588069
69	0xbf99d4f2d441ec4a	-0.02522639675633468
70	0x3fa94fa27663f657	0.04943568892666111
71	0x3fb3c660ba8c54bf	0.0772457557144035
72	0xbf7d32595fa5f61e	-0.007128094783522635
73	0xbfa868e20690a450	-0.047675193120377046
74	0xbf98a80458add83f	-0.024078433907071647
75	0xbfa5656e3a434de5	-0.041789478885814
76	0x3fb8c6dbf923dd6a	0.09678435165903002
77	0x3f7e79cc91346c58	0.0074403754145136655
78	0x3fb82cc5e70b680a	0.0944331826280235
79	0x3fb4d4d962c584a0	0.08137282048621097
80	0xbf8e3b23ce185118	-0.014761237837810401
81	0xbfb1e03437326c72	-0.06982733104307373
82	0xbfad843eaddd16de	-0.0576495730625035
83	0x3f9034b8cfad175d	0.015826118159814374
84	0xbfae603eee42fdf5	-0.059328047356299075
85	0xbfb16aa95fd03162	-0.06803377713385353
86	0xbf9160352e9618fc	-0.016968565910723918
87	0x3f7d3af866d3dba5	0.007136316603683667
88	0xbfae8006174c70d1	-0.05957049402624793
89	0x3fadb885f8fa8ae6	0.05804842628756095
90	0xbfb74364557f6918	-0.09087206923814894
91	0xbfacbee31fb184ea	-0.05614385377772087
92	0xbf9c8f1be09a648e	-0.02788966711395751
93	0xbfa0ab6d33fe247c	-0.03255788097073606
94	0xbfb368163d81b47c	-0.07580698968532035
95	0xbfa8193168de52b0	-0.04706720738537251
96	0xbfb8937bca2f1d7e	-0.09600042043813592
97	0xbf71a380ba28e6be	-0.004306319084713626
98	0x3fb2fbc8ba8ed7a0	0.0741544204200566
99	0x3faba029e6d54cb5	0.05395632689273936
100	0x3fb65f094e684fd7	0.08738763965840178
101	0x3fab749e66c4236b	0.05362410549611848
102	0x3fb51697ba6894c7	0.08237598706235182
103	0xbf9dc2e61a3d351d	-0.029063792563921987
104	0xbf7699080b145507	-0.00551703588395936
105	0x3fb35d04be81dead	0.07563810015732982
106	0xbfb07db261a6894c	-0.06441798099561885
107	0xbfb5adb101898716	-0.08468157088784908
108	0xbf8d89eb82f050ea	-0.014423217709954323
109	0x3f829ed397d74ab1	0.009092000075644565
110	0xbf97d7bb100fda14	-0.023283884864179497
111	0xbfb36d4dc0b776cc	-0.07588659243580337
112	0xbfab574f2a2fabf6	-0.053400491618809484
113	0x3f887c604239bbc7	0.011955978413622404
114	0x3fb4eba5e68d111e	0.08172070387542305
115	0xbf96a73e6b163103	-0.022122359548618863
116	0x3fa70fe0b0699888	0.04504301217529966
117	0xbfaf5b26a6e7875c	-0.06124230182082499
118	0x3fac757194a22af3	0.055583524125799054
119	0x3f9929dc09e952af	0.024573743920273724
120	0x3fb047f96ae04e79	0.0635982404640404
121	0xbf3fe0ac525f9e55	-0.0004864140231561666
122	0x3fb95ea13d5f3419	0.09910018680894019
123	0x3fb5d0d707466cc0	0.0852178948174922
124	0x3f965712a24c2e38	0.021816531329973382
125	0x3fb2f4bd7b3dd233	0.07404693850350767
126	0x3fb6580983d65dac	0.08728084057508195
127	0x3f84a24b9b0d3187	0.010075178784654039
128	0xbf9debb8a63e89c3	-0.02921951784777278
129	0xbf7a87c26d06105a	-0.0064771265755361965
130	0xbfa8a670f159592a	-0.048144845449018384
131	0xbf664827042a773f	-0.0027199518238622262
132	0xbfb7072edac26d15	-0.089953354271007
133	0xbfaa750a8e376d59	-0.05167420373956117
134	0xbf963037154e2d62	-0.021668301272751996
135	0xbf7b98ded9ae4674	-0.006737585553212012
136	0xbf7f583d18caaa61	-0.007652510318318124
137	0x3fa168b7c5613dfe	0.03400205883428596
138	0xbfb7d6a026360171	-0.09311867649922136
139	0x3fb38fdf928f5904	0.07641408279537037
140	0x3fb5f67e36df701d	0.08579243507068708
141	0x3f9c2056c6f1e21c	0.027467113392477413
142	0x3fa3f7d0f27aafbb	0.03900006256057461
143	0xbfb459aed26107bf	-0.07949345241743709
144	0xbfa1eda6a3a7fad1	-0.03501625774150841
145	0x3fb0b0c781a9237f	0.06519743838829405
146	0x3f9225db650c8e2f	0.0177225380349581
147	0xbfb234215d7bf1ff	-0.07110794575050504
148	0x3fb8782ab2cc3aed	0.0955835997121814
149	0xbf917efb887b817d	-0.01708596249125226
150	0x3f7ea6a307a6c176	0.007483136020184458
151	0xbf6c78cb2597f5b0	-0.0034755675994790555
152	0x3f91ca37952bb223	0.017372959594398673
153	0xbfa466426f5f712c	-0.03984267816096784
154	0xbf8f0a0083ea896d	-0.015155796075593664
155	0x3fb04db7a93f20f4	0.06368587381360041
156	0xbfa47cfd361f43be	-0.04001609121008397
157	0xbf92a4c0d3b71ed3	-0.01820660869796493
158	0xbfa9d1e72e14c64f	-0.050429558158054826
159	0x3f9714e09fd262c7	0.02254057860827421
160	0x3fac8c24a236d56e	0.05575670700219858
161	0xbf8df3d6ef72f36c	-0.014625243360905059
162	0xbf98c45bc3449f3b	-0.024186548035827853
163	0x3fb47b4b5387c7a2	0.0800063208514801
164	0x3fa9427aecf869c8	0.049335328509375
165	0x3fb54464b02e8e84	0.0830748491412639
166	0xbf5be21a3e4f458e	-0.0017018562586950978
167	0xbfaf797fb5583405	-0.06147383774450791
168	0x3f29af09ef8b31d1	0.00019595142636886926
169	0x3fb4ba32d7e91802	0.08096616526844971
170	0x3f70dcecf6f1d0e3	0.004116941111636604
171	0xbfb45189c1bcf210	-0.07936917285855594
172	0xbf8a504a3554da29	-0.012848453285738764
173	0xbfb14e20c2331d01	-0.06759838811113995
174	0x3f7ad9e1b33c7a9e	0.006555444375207968
175	0xbfac8a35285bc558	-0.05574194066674448
176	0xbfaa20050014a110	-0.05102553964599299
177	0xbfa5556517f831ed	-0.04166713636013584
178	0xbfb17e35628fcedf	-0.06833203941624387
179	0xbfa15cac5637fb71	-0.033910165333501115
180	0xbfb758b76e2aa446	-0.09119745673764709
181	0x3fb2699d01d7c646	0.07192403120986865
182	0x3fb04941b6630d47	0.06361780836873719
183	0xbfb18d37efd141fc	-0.0685610733501178
184	0x3fa7583943afcf74	0.04559496833090196
185	0x3fb0bce50ddb0c57	0.06538230503342511
186	0x3f7a16ff56911292	0.006369588293698174
187	0x3faa4eb0f35382ae	0.0513816163090771
188	0xbf9412f5a1574dd1	-0.019603574726557774
189	0xbfb2646b25855406	-0.07184476533923609
190	0x3f82d8a808f7b23e	0.009202301763218231
191	0x3f7c0826ff5cd421	0.006843712171577671
192	0xbf9932de79a4d308	-0.02460811250166997
193	0xbfb7a08e98bd74a5	-0.09229365567212484
194	0xbfa6b619fd07fbdc	-0.04435807431945424
195	0x3f95d3279d0b9fae	0.021313303909579133
196	0x3fa67e8122b6ea05	0.043933902251826175
197	0x3f8c34c389037186	0.013772513979738898
198	0xbfb0f508ce55ad21	-0.06623892819850542
199	0x3f9178c1db85e23c	0.017062214873904788
200	0x3fa9a89b807e988c	0.05011449759995043
201	0x3fb0625f3e85b6dd	0.06400103832649102
202	0xbf991ab366484c12	-0.02451591789037983
203	0xbfa3378179ef5b9b	-0.037532850393908045
204	0xbf878049a3d9a285	-0.011475158036050157
205	0x3fa77cfded8e0aa5	0.04587548756446339
206	0xbf817722aec97593	-0.00852801414401475
207	0xbfb77bc46aa4ef53	-0.09173228839511909
208	0x3fb6b1b02795f7e8	0.08864880529833352
209	0x3f887e95831bd11f	0.01196018988000752
210	0xbfae0efa2838cdf1	-0.058708016786478974
211	0xbfab24fcfef2e043	-0.05301657306830567
212	0xbfb03a6d4e7bdc7f	-0.06339152494534693
213	0x3f850fdae3905d59	0.01028414732904419
214	0xbf8c6609a649a3f9	-0.01386649645538006
215	0xbf52155fb0b4a7fb	-0.00110372872115727
216	0x3fb0e03a0f858c6d	0.06592142943331832
217	0xbf8cdbe01492af89	-0.01409125387939249
218	0xbfb79f82a7bbff9b	-0.0922776851184594
219	0xbf8844145c9df755	-0.011848601414154262
220	0xbfa046384938d5ed	-0.031785735071405564
221	0xbfa40bf3b8d5e138	-0.03915368682186443
222	0x3fa19bf1eca1bcf0	0.03439289105960508
223	0xbf80dad7412bc2e4	-0.008229905773505526
224	0xbfa2792589992bbc	-0.03608052544276272
225	0xbfb3fd5aa3105bc6	-0.07808462601711516
226	0x3fb1f3e4a4990eeb	0.07012776392462754
227	0x3f6f9c4552fb91e8	0.0038586954104735567
228	0xbf8dd8bc29d179e8	-0.014573545480911457
229	0x3faea59433d3edff	0.0598570168749255
230	0x3f9dbccd0402db4d	0.029040530557462408
231	0xbf9e5f2dc412770b	-0.029659953205388095
232	0xbf82bb4a8d19e101	-0.009146292143882297
233	0xbf82eed8934be6a9	-0.009244625086910334
234	0xbfa5da5fb7339596	-0.04268168555590106
235	0xbfb45c45f30f820d	-0.07953297790619036
236	0x3fb5421e3bc98ca8	0.08304013213778438
237	0xbf921b923a369a37	-0.01768330078416566
238	0xbfac16ce1dc1a5e8	-0.054861489422204646
239	0xbfb0b50fb7e38b2f	-0.0652627777049417
240	0x3fb42781aa333966	0.0787278214004111
241	0x3f88336b97499de4	0.011816826395444964
242	0x3fb0c66a3ae7306d	0.06552757204116384
243	0xbf9aae04df18ad09	-0.026054454914782563
244	0x3fb50b1623a215b1	0.08220041627836029
245	0xbfb17692ef123b87	-0.06821554505061843
246	0xbfb0db8406333908	-0.06584954406136856
247	0x3f63820848e739f7	0.0023813401996683986
248	0xbfb17b54252897e1	-0.06828809649650182
249	0x3fa7b98b038170be	0.046337455919201784
250	0x3fabcb646a2c3c72	0.05428613468222289
251	0xbfbab7eda5b8b3f8	-0.10436902328429187
252	0x3fa16796178de423	0.033993425727153935
253	0x3fb37bbedd13fb6d	0.07610695741094071
254	0xbfb25a3277ee1e1a	-0.07168879917127705
255	0xbfa0145e58310dc0	-0.03140539957578481

b1 f8 [1, 64]
0	0x3fc2fb262f69477e	0.1482894641399603
1	0x3f6353b6642c0b96	0.0023592531518956223
2	0x3f46c461c52ed1cb	0.0006947972673204071
3	0xbf918a7d5f2a3fd9	-0.01712985890713967
4	0x3f8b8063354a7fee	0.013428473533451748
5	0x3faf884037849036	0.06158638646800833
6	0xbf886bc85eadba2b	-0.011924329175340883
7	0xbf70b8393969daad	-0.004081939251242045
8	0x3f6ac40158ad53d5	0.0032672907158634947
9	0x3f6cdf86fd8e525b	0.0035245548755915962
10	0xbf5ca2bea4c52c32	-0.0017477857355341461
11	0xbf8b780d2258e701	-0.013412573443122524
12	0x3fb616d86791688b	0.08628609207645092
13	0x3f927acbd8254020	0.01804655558345314
14	0x3f646a3261395b28	0.002492044828425039
15	0xbf6201c751bc5ee5	-0.0021981137232492836
16	0x3fa1774279f92459	0.034113004102046936
17	0x3f8e9a6fe14a7cc3	0.014943002760729468
18	0x3f73676fd3fc514b	0.004737316921609678
19	0xbfb73c1c05a41abd	-0.09076094758720905
20	0xbf4c01df6b92a7b3	-0.0008547154349305336
21	0x3f5734686b340573	0.0014163036074140406
22	0xbfb63a4b6362352a	-0.08682700325353623
23	0x3f948a187c930da4	0.0200580431017109
24	0x3f73ce6bf925780e	0.004835531015798379
25	0x3fb0d43a87a7f131	0.06573835193552637
26	0xbf91e8242b1de2b7	-0.017487111217152598
27	0x3faf60ed57675039	0.061286370200520364
28	0xbfbdfc2b6fca9988	-0.11712905387194017
29	0xbfc213d4698993b2	-0.14123015549844592
30	0xbf8af3ad078e06a1	-0.013160087388089993
31	0xbf9a952fda97ec97	-0.025959727970967874
32	0xbf72bbf7c25cd319	-0.004573791322219711
33	0xbf49f2ba5549beb7	-0.0007918748693338172
34	0x3fa383e9b38688b9	0.0381157905242317
35	0xbf50a11a72ca42f8	-0.0010149725232261857
36	0xbf790f0d84c92517	-0.006117871100806547
37	0xbf7e459e34ae8132	-0.007390611640318222
38	0xbf8790ee5539d572	-0.011506902671707595
39	0xbf59a131995b25a0	-0.0015643104901975416
40	0x3fb22aebe0771f28	0.07096742849455195
41	0x3fa9ade97b405381	0.05015496854335933
42	0x3fa428844f54f44b	0.03937161892324833
43	0xbf7c40714bebcd4c	-0.006897394718851157
44	0xbf74dd73d6131668	-0.005094006047504963
45	0x3f74ad8d82870eaa	0.005048325322096462
46	0x3f9e05a7ca63e607	0.0293184487609093
47	0xbfb62c44cf6a0001	-0.08661298812694442
48	0x3fb1c3cc24d4f8e8	0.06939388179032202
49	0x3f9ddfb359ff6d17	0.029173662536647074
50	0xbf6d2aa03157e1d9	-0.003560364605388094
51	0x3fc764800b67ecd4	0.18275452191287533
52	0x3f6d7dfa68b9d8d1	0.003600110130544378
53	0xbfa9a8451b99de56	-0.05011192285467973
54	0x3fb483d63475e769	0.08013666897559592
55	0x3f75051679628b08	0.005131805219351866
56	0x3fa7c2ca884d33d2	0.04640801347577618
57	0xbf93141c683799bf	-0.01863140474406477
58	0xbf516d39b92981df	-0.001063639040374757
59	0xbf93ca2340488a6c	-0.01932578163008218
60	0xbfa795e288ff7546	-0.04606540605866853
61	0x3fa48413eb37beb7	0.04007017370520088
62	0xbf63fb283dcd467d	-0.0024390970196826443
63	0xbf7aa9ecd09bf22d	-0.0065097094136459645

w2 f8 [64, 32]
0	0xbfb17d350fb91382	-0.06831676133977108
1	0xbfad967a8e12a48e	-0.05778868660247226
2	0xbf8a30623a473e8b	-0.012787597087395205
3	0xbfbd4dcc8d372d27	-0.11446836898465006
4	0xbfa467556a8cc09c	-0.03985087323815259
5	0x3fa17ed0ffda196a	0.03417065737908127
6	0xbfcc3767f6942410	-0.22044086017584208
7	0x3fa84ef4258844f7	0.04747736890943515
8	0xbfb82d4fa6f33f23	-0.09444139314586812
9	0xbfb0525bfd692db3	-0.0637567037276117
10	0xbfbf119f9ddaf404	-0.1213626633061296
11	0x3fb1a4b4a51e747a	0.06891945868706442
12	0xbf9810cf7b4d0e7e	-0.023501626873680063
13	0xbfb552708eb50ee0	-0.08328917964996263
14	0x3fb724d8544f1480	0.09040596063921846
15	0xbfc79ee34122bcea	-0.18453636818364966
16	0xbf5fc4939c08f9cd	-0.0019389573573246222
17	0x3fb4041e672f3bd2	0.07818784732010833
18	0xbfb89279ccc16f2c	-0.09598504303852157
19	0x3f661aabec747d51	0.002698264873870628
20	0xbfba84861631e7a3	-0.10358465234631224
21	0xbfbdf5b4256dd499	-0.1170303908709961
22	0x3fb0afa6ead7bf95	0.06518023713556283
23	0xbfa74996bdeabd18	-0.04548331325838201
24	0xbfa102b51131cbd2	-0.03322378001111982
25	0xbfb845e02e7eea96	-0.09481621871138154
26	0x3fb08c7fed12ff60	0.0646438554567772
27	0xbfc08ca1851cb0fa	-0.12929171561825809
28	0xbfaf29d06893ae71	-0.06086589123318909
29	0x3f52a27ca905524a	0.001137372721207746
30	0x3f99d69413fd3c19	0.025232614250224914
31	0xbfc1b3f12e6e9116	-0.1383038975446957
32	0x3fba2b8e41506531	0.10222710699635652
33	0x3fb650490645d227	0.08716255572455421
34	0xbfb36e4e5034e298	-0.07590188463371772
35	0x3fab8221cbc669f2	0.0537272034882398
36	0x3fb341edc5adc3c8	0.0752247436155492
37	0xbfb7135bb81aa2bc	-0.0901391338799255
38	0x3f9dae0935bcc7f6	0.028984207062599375
39	0xbfb5aa991bcc65ca	-0.08463437012360156
40	0x3fa10a0ca6d145f6	0.03327979599329105
41	0xbf87afdfaf4ac807	-0.011565921341887287
42	0x3f8c0ef69cdf54f6	0.013700415289273665
43	0x3fa71730e52370b5	0.04509880826091842
44	0xbfa50bf82982a0b8	-0.04110694414822674
45	0x3fa773a3aaac796a	0.045804133018679874
46	0xbfb4d15ff0ab8aa9	-0.08131980539068685
47	0x3fa07fa8f70aead1	0.032223968655178965
48	0x3fa5162970317a90	0.041184706635921775
49	0x3f9be10982a2f457	0.02722563609926384
50	0x3fa2fd3a064d4959	0.037088216084742505
51	0xbf7b27a128ca7974	-0.006629590538663844
52	0xbfb6e88c1ed452af	-0.08948589089079449
53	0xbfb1d5003b7a0ac4	-0.06965638591831708
54	0xbf9e34fbdeeb15e2	-0.029498992424825128
55	0xbf9c787a9ee355ce	-0.027803340862041108
56	0x3f8814fd65a2c573	0.0117587849275391
57	0xbfb93e5a62afa279	-0.09860768231704665
58	0xbfb87d108259ec51	-0.09565833265689717
59	0x3fa25da9e19dacba	0.03587084654903934
60	0xbf9bb7f5cc24dbbb	-0.027068939766845306
61	0x3fb247dbbff3e4aa	0.07140897213311584
62	0x3f8239f9c757c57c	0.008899642368279663
63	0x3faf9f8ddb358f6f	0.061764176377237294
64	0x3fa5eb07ac2a3d86	0.042808761373744494
65	0xbfb88c15945d2de6	-0.09588751670997162
66	0x3f90673706583861	0.01601873375152996
67	0x3f8cbffa61448601	0.014038044064878187
68	0xbfa9e049d658ac89	-0.050539309897737424
69	0x3f932ecdc05cf560	0.0187332295092707
70	0x3fb027fa868d5d6a	0.06311002526250822
71	0xbfb75252b76582be	-0.09109990098432783
72	0xbfa7449e48bfdae9	-0.045445391064211034
73	0x3fb401ac9cd67e46	0.07815054730462476
74	0xbfa7e7ab33305b04	-0.04668936729301801
75	0x3f8f688f85972231	0.015336152328829207
76	0xbfb1ec7ce92ebed5	-0.07001476948675685
77	0x3fa3d5b480b44fc9	0.03873981543634348
78	0x3fba2d29ef87b272	0.10225164506818787
79	0x3fa7217c4ecc1f84	0.04517734968072687
80	0x3fb8deea31a46b10	0.09715141021699147
81	0xbfb560d3999946f5	-0.08350870609254087
82	0xbf8ddc006fe3deb2	-0.01457977620564974
83	0x3fa02b3c7b5c254c	0.031579866465174605
84	0x3fb393a2529ac8f5	0.07647146717753002
85	0xbfafaa08a7f4aa00	-0.06184413004151068
86	0xbfb8c58fb5e1567e	-0.09676454725680547
87	0x3fa4bbc37414411c	0.04049502174359729
88	0xbfb13c9fb4fa048d	-0.06733129661917499
89	0x3faf358ef7969090	0.06095549366298869
90	0x3fa27b63bd4176b7	0.036097637989525415
91	0xbf95035416e21070	-0.02052050962130675
92	0xbfb0f15688ab5641	-0.06618252598431075
93	0xbf90f057b5fe1087	-0.016541834338128083
94	0xbfaad302e610f704	-0.05239113863397729
95	0xbfba3aadfbb5ab4f	-0.10245787997488985
96	0xbfa439568c1a5d16	-0.03949995479814043
97	0xbfb46cd3e09e84ef	-0.07978557809703422
98	0x3fc2275a95a6e386	0.14182598407003527
99	0x3fbec8f98668727a	0.12025413066334947
100	0xbfb28c73f901fc40	-0.0724556429795351
101	0xbfb759be40441fb6	-0.09121312207218932
102	0x3f9294663dbcddd9	0.01814422370736488
103	0x3fba6dbc81d311e2	0.10323694390815022
104	0x3fac1fa1ada4c0c9	0.054928829619144866
105	0xbfb4a4fc106b0e0c	-0.08064246559938953
106	0x3fb65e56eb219f61	0.0873770069171065
107	0x3f8e59f5b590b62f	0.014820022204811682
108	0xbfb1d9509fbaa201	-0.06972221278795844
109	0x3faf8c9ffc5a5aaf	0.06161975818138409
110	0x3fb1f99a77562ff0	0.07021489537709136
111	0xbf6aba6b8f14fa00	-0.0032627201805148776
112	0x3fa0e489233e1a73	0.0329935889740697
113	0x3f968ce47d3a88ad	0.022021837371206377
114	0x3f9e9776a0a65921	0.029874661975179188
115	0x3f716728687f534a	0.004248769611838574
116	0x3fa9929b554cffdb	0.04994664589185024
117	0x3fabf3ecb08184ad	0.054595371767171975
118	0xbfa09badb58daead	-0.032437733089719735
119	0x3fb676f647ab0beb	0.08775271653853138
120	0x3f8e5b71d26f50e4	0.014822854265652947
121	0x3fc12864fa020b71	0.13404524047299618
122	0x3fa52e519a27de04	0.04136900908263999
123	0xbfa946692e588ef2	-0.0493653172564147
124	0x3fc007b672c3089f	0.12523537257772419
125	0xbfb5f245d9eacdd6	-0.08572804041141721
126	0xbfb0d6d93df8c9f5	-0.0657783294962327
127	0x3fa3c2d600b5e6fa	0.038595855318773034
128	0x3f8d16bd6c801ff6	0.014203529237434492
129	0x3fb342ad1cfffcfd	0.07523614843374911
130	0x3fb0b2ba80a07873	0.06522718086532268
131	0x3fb97a44cc8e2487	0.09952192300819905
132	0xbfab0622306b727d	-0.05278117028294547
133	0xbfb95cc32356e5c1	-0.09907168972758652
134	0xbf9da3a94982a307	-0.028944630729401257
135	0x3f9196d20fd062ea	0.01717689725419095
136	0x3fae5cbb1b0d70c0	0.05930123048048719
137	0xbfb7079747793ce1	-0.08995957846603943
138	0xbfb0192e1d8d55df	-0.06288421842085466
139	0x3fb21a8d02b18fc1	0.0707176333976909
140	0x3fb285e72c7de760	0.07235569797731278
141	0xbfa6fc6427385771	-0.0448943422199325
142	0x3faacf368885c511	0.05236215988669291
143	0x3f963aa99c9ece04	0.021708154854151132
144	0xbfa31975426503cf	-0.0373036044643481
145	0xbfb8ddd4b06047df	-0.097134869633265
146	0x3f76108d14ab6d8a	0.005386878105777435
147	0x3fa9adbedfc029b9	0.050153698743162285
148	0xbfab0ea1cd66fc45	-0.052846008609315244
149	0x3f9289d752c8494b	0.01810394709361533
150	0x3fb000b87ebbe2eb	0.06251099676218146
151	0xbfb48dd44375825b	-0.080289141149032
152	0xbfb1d5a829791653	-0.06966639530681933
153	0x3f99af4c6d420b27	0.025082773369386715
154	0xbfb28faa04bb7aa8	-0.07250464072738316
155	0x3fb2afa76d9f03b1	0.07299276758477792
156	0xbfaf307c1f9fd68e	-0.060916785107037005
157	0xbfa12c515adb3ade	-0.03354124292456161
158	0x3fb0c28524d19eb5	0.06546814106843153
159	0x3f9dfa7c5227336a	0.02927583934233572
160	0xbfb99678cfb41b91	-0.09995226927649827
161	0x3f814040a9bd0cc7	0.008423333339698037
162	0x3f86ad3906a2b7cb	0.011072583689692458
163	0xbfb1910e40c8b9fc	-0.06861962396281024
164	0xbfaff1ba4c10b576	-0.06239111116915812
165	0x3f9f129d21f099fb	0.03034444350864794
166	0x3fa7bd1fa92f83e8	0.046364774134197095
167	0x3fac82a3821847a8	0.055684194212644755
168	0xbfb53c17867f21f7	-0.08294817956551258
169	0xbfb94610b8da0bc1	-0.09872536194784144
170	0x3f6bcd0c9fd47ab6	0.003393673569589718
171	0xbf93ea9cc6b713f4	-0.019449662808046456
172	0xbfb454161bf5c367	-0.07940805609338285
173	0xbfaceef57e96bbdb	-0.056510612204298837
174	0x3fa61c64edbca174	0.04318538095532434
175	0x3fb3b5ead29f264a	0.0769945873463708
176	0x3f93e1093d06bb89	0.019413132047414492
177	0xbfb24f5d22de04ed	-0.07152349568606882
178	0x3fb566ca1618496e	0.08359969176698254
179	0xbfb93106e1279b1b	-0.09840434071484731
180	0xbfb5fd757e3b6a4c	-0.08589872676695015
181	0x3fb255e488833188	0.0716231187136086
182	0x3f65c6cc6c12240b	0.0026582710857536765
183	0xbfbb068f28403c0b	-0.1055688355702246
184	0xbfa6ff325fe98d58	-0.04491574688725092
185	0xbfabc3c8a6615556	-0.05422808676727679
186	0xbfb475b6445caab1	-0.07992114228242532
187	0x3fb597d6d0004dd2	0.08434813097146979
188	0xbfacf3f60e39b5cc	-0.056548775898459164
189	0xbfa7a1a8b9398119	-0.04615523587267684
190	0xbfb8797c2be97acb	-0.09560371467658084
191	0xbf9e44ce0e416ba7	-0.02955934488305059
192	0xbf7d3f9b7e661da2	-0.007140738866275783
193	0xbfa283fb5102f507	-0.03616319049749888
194	0xbfb36b9b2d9aff02	-0.0758606897679748
195	0x3fb11fa0dac8ed85	0.06688886014392466
196	0x3f91343afbdcbfc8	0.016800805685477177
197	0x3fab72bad0f50221	0.053609693534330434
198	0x3f9d267c15b9e768	0.028467120004712326
199	0xbfac13c8e7e571b6	-0.054838445956849766
200	0x3fb500464b075662	0.08203543979410591
201	0xbfb05c78e7337eeb	-0.06391101498183686
202	0x3fb7fbb170f9bfd8	0.09368428238099058
203	0x3fba0b7464ea138c	0.10173728431443702
204	0xbfb47be50a2bd422	-0.08001548288650942
205	0xbfb791377d2cb58e	-0.09205958181401838
206	0x3f87547e52449e0f	0.011391627202626457
207	0x3fb2739e65df0dde	0.0720767019948236
208	0x3f8669cacd588eb6	0.010943970100078953
209	0xbf7914fa8f7bdb18	-0.006123522521867007
210	0xbfa44280c6e0a600	-0.03956987788872013
211	0x3fb39466147e8dcc	0.07648313522673006
212	0xbfb239e51d8f50a0	-0.07119590732264891
213	0x3fb139baacad5fe8	0.06728712764504474
214	0x3fb1e82fc660d11a	0.06994913666932626
215	0x3fb2b8ab2b0b2211	0.07313031960359974
216	0x3f716ca6e7d21b22	0.00425400922279698
217	0x3fb8df60711be476	0.09715845834206668
218	0x3fad7e22429b2ec4	0.057602949743878834
219	0x3fb8e43dab147b5e	0.09723267962224955
220	0xbfb3d8295f945209	-0.0775171144817436
221	0xbfad04481dafc74d	-0.05667329180131606
222	0xbf8d808559ffffc2	-0.014405290421564024
223	0xbfb8f667217d74a5	-0.09750980918529935
224	0x3fa35f2eca6a2002	0.03783556195145367
225	0xbfa52277f470f8c4	-0.04127859934713876
226	0xbfb1c8491ad3b86e	-0.06946236519772395
227	0x3fb9edf84980aa26	0.1012873820733736
228	0x3fb88a87935a0a25	0.09586379382566486
229	0xbfba1435015afe49	-0.10187083514301166
230	0x3f914ea96aa79103	0.016901633391072767
231	0x3fb953393c418d1c	0.0989261409863968
232	0xbfad5d3dbefdd3f3	-0.057351998867410624
233	0xbf2fb62c9e8e63ad	-0.00024194044752048668
234	0xbf740d47207ada02	-0.004895475234369064
235	0x3f958f8457e751ae	0.021055286278924328
236	0xbfa6ab7dae50d94b	-0.04427712204817399
237	0xbf9ab123234c4314	-0.02606635001126552
238	0x3fb9683aa8d726f1	0.09924666044312482
239	0x3f70c24de88f68e9	0.004091553048932031
240	0x3f7c32e42e9acc55	0.00688447126019572
241	0xbf9cd45cfa3086db	-0.028153851290091274
242	0x3fb097701730cdcd	0.06481075826814404
243	0x3f9c36b8856dd286	0.027552493232593032
244	0xbf95002b61a61500	-0.020508458933837126
245	0x3fa74b703dedb63b	0.04549742465938463
246	0xbfae7e37eca5752c	-0.059556720387926226
247	0x3fb57e5d51aef203	0.08395941967223312
248	0xbf803888d70886e3	-0.007920331060691626
249	0xbfb049a67be449be	-0.06362381481839116
250	0xbf9d88c2ce8c684a	-0.028842014176099696
251	0x3fb09a2ef4b6d072	0.0648526523062303
252	0xbf99f79f3ce9bc3a	-0.025358665554844097
253	0xbfaa621d79133d8c	-0.05152980902641521
254	0xbf924845909efd45	-0.017853819801300536
255	0xbf937d539f3d32c2	-0.019032770723515176

b2 f8 [1, 32]
0	0xbf6d380bf4ec3176	-0.003566764214502689
1	0x3f79ac68f8ac9044	0.006267938656296993
2	0x3f9b2408ef3a294f	0.02650464973570737
3	0xbf7885d3d64dd30a	-0.005987002838868669
4	0x3f44af20ca3c6e65	0.0006312284571978298
5	0xbf7639de22b7e2aa	-0.005426280705699208
6	0xbf6a5ca4bd334f98	-0.0032180039939734943
7	0xbfb0aaeed68475af	-0.06510822999231068
8	0xbf718bd3de72369d	-0.004283740628250901
9	0x3f9ef25d82f06ac0	0.030221425167932692
10	0xbfb7a5679c85302d	-0.09236762591643873
11	0xbf62f61c018056f9	-0.0023146197309057395
12	0x3f601a118675537b	0.0019655554093937467
13	0x3f8193d7d9a30e09	0.008582769707920173
14	0x3f9e75cd43198f1c	0.029746253223847594
15	0x3f9322f1fa708e9e	0.018687992964386717
16	0xbf8174004162b621	-0.008522035594377421
17	0xbf5ae33456190c3e	-0.001641083821952063
18	0xbf9fa4c6aa385819	-0.03090200818959241
19	0xbf7f6977aa1644f8	-0.007668940962859631
20	0x3f81f9fe4f815dd3	0.008777605820951806
21	0x3f9a6dbd4cfd10a4	0.02580924780274131
22	0xbfa155bf2b6e037c	-0.033857320834619536
23	0xbfa2af85896f3ff5	-0.03649537375133597
24	0xbf71e67ad970729f	-0.004370193367347368
25	0x3f8fde011c88ddc7	0.015560158427532124
26	0xbf9b0de69995c92a	-0.026420214771357177
27	0x3f727fd742f76a55	0.004516449800088103
28	0xbfa9a08fd654496f	-0.05005311480830953
29	0x3f6771bf7d652b4a	0.0028618564639705567
30	0xbf85b36ccc85f16d	-0.010596132270386882
31	0xbf95e028d6a68015	-0.02136291322824498

w3 f8 [32, 16]
0	0x3fc10153ec40cdde	0.13285302196309962
1	0xbfab1c2d02f2f4df	-0.05294933949469693
2	0x3f895018d6de6bac	0.012359804208065338
3	0xbfae4bb9eaadc050	-0.05917149533968369
4	0xbfbe3945ab85dbd4	-0.11806140363283585
5	0xbfb355812fd71d15	-0.07552344720817346
6	0x3fb91cb714444d36	0.09809440846247672
7	0x3f928b63b4019d5b	0.018109853612626164
8	0xbfaa914e450c03f4	-0.05188984482629869
9	0xbfbde701d073facb	-0.11680613841233904
10	0xbfa2a4a38f933806	-0.036412345196012594
11	0x3fa876e4e83e4b8d	0.0477820905208751
12	0x3fbaa5941720b48d	0.10408902706758934
13	0xbfc023ffc3e5282f	-0.12609860482399557
14	0x3fa0cfd2c496d711	0.03283556604166738
15	0xbfb6b9c3e725f808	-0.08877205270070487
16	0x3f906bd4d619845d	0.01603634411583631
17	0x3f823126723d85f2	0.008882809029901548
18	0xbfb802ad95909aae	-0.09379086400495382
19	0xbfb1c2aaed60f6b6	-0.06937664313678735
20	0xbfc17e9a3be2d8c4	-0.1366761009609886
21	0xbfa70b435ba6446d	-0.04500780576484762
22	0xbfb2f7f4197a2a0d	-0.07409597036363653
23	0x3fb70fa18c7b6530	0.09008226089226379
24	0xbfaee8423d6554af	-0.06036574363194213
25	0x3f9b1081bb68107e	0.026430155814538107
26	0xbfa544370c3b4264	-0.04153606437978821
27	0x3f8ca6d15bff7519	0.013990054721882349
28	0x3fbe9503c5fe12c9	0.11946128448296202
29	0xbf2bcbc710007f96	-0.00021206669771433863
30	0x3fb8a3b11206b38b	0.09624773683635916
31	0x3fc01f4de1a52797	0.1259553291113746
32	0x3fbe4de572c1c905	0.11837610294040608
33	0x3fb97a27c9967f88	0.0995201937826079
34	0x3fc7746f85b7f336	0.18324083356119453
35	0x3fc42feeafc55db4	0.15771277983252008
36	0xbfc1513091ab21db	-0.13529021370619784
37	0xbfbf9cea7ea2cb87	-0.12348809806534976
38	0x3fa5cc4214e802fe	0.042573990871465725
39	0x3fc8d45fdca4462e	0.19398115418930345
40	0xbfbaed47a7e978ba	-0.10518310403265022
41	0x3fa0979b8f1678d2	0.032406674591798926
42	0x3fb7bca6354475cb	0.09272230911707095
43	0xbf8df018affec442	-0.014618103857943269
44	0xbfad3e98e67498ed	-0.05711820424248679
45	0x3fbd4c76c10bf788	0.11444799626403157
46	0x3fc7e93ebe60ef15	0.1868055753310435
47	0xbfbf231bb2a9f854	-0.12162945854103785
48	0x3f9f651bf9eac611	0.030659138802269285
49	0x3fc09d3c34ec6a3d	0.12979843696742135
50	0x3fb7c0392c57208c	0.09277684528854219
51	0xbf8825b759605657	-0.01179068795685649
52	0x3f6e59638ff9b8ac	0.003704733331509299
53	0xbfc17f164f48df0a	-0.13669089194603884
54	0x3fc7fb9b3ac0c2f2	0.18736591690824117
55	0x3fae052b45cd0457	0.05863318659840704
56	0x3fae85a294322b4a	0.05961330470116495
57	0x3fbb06a67bf873b7	0.10557022596954267
58	0xbface4584b53d8ce	-0.05642963332677341
59	0x3fbe30470a75e9c3	0.11792415624032686
60	0x3fb572071b6e865d	0.08377117557258758
61	0xbfb54c962e957106	-0.08319986951159217
62	0xbfb78bd88aca1abc	-0.09197762859740072
63	0x3fbbdfcba53ca3ce	0.10888359817603474
64	0x3fafb5041a334abb	0.06192791766956903
65	0xbfb6821b84b4c53e	-0.08792278280158869
66	0xbfb357f8ae2585f5	-0.07556108714700101
67	0xbfb90339a66df0d5	-0.09770546258181707
68	0xbf924fb5e7f85feb	-0.017882196696603996
69	0x3fb315a031db4830	0.0745487329216139
70	0x3fc7903a6721d67a	0.18408899341345714
71	0x3fbaa2ffff94045b	0.10404968251897755
72	0x3fb292eb3ff60abe	0.07255430518675163
73	0xbfa2e97df483dda3	-0.03693765268138385
74	0xbfb151e484cc8b5e	-0.0676558326927483
75	0x3fb2a57f7123c011	0.07283779632757638
76	0xbfb8a1eb981e269b	-0.09622070754826455
77	0x3fbe9598e8972db3	0.11947017363052374
78	0x3fb31a1b71fe8eef	0.07461711438241612
79	0xbf84749bf9596d4a	-0.00998803953841922
80	0x3f9f3d86cfdca6ad	0.030508142887959156
81	0xbf61f3ada41372d9	-0.002191390173363988
82	0xbfb2981b837da71a	-0.07263347587800376
83	0x3fc19e71fd0008a5	0.13764786580583635
84	0xbfb1458f1ab7ab28	-0.06746763613015772
85	0xbfc05174264a5634	-0.12748576993605953
86	0xbfa528e47d3dca89	-0.041327610290768986
87	0xbfbf654200f93696	-0.12263882182852578
88	0x3fb6aee013a44152	0.08860588531047611
89	0x3fc251759e6a6952	0.14311094508304706
90	0xbfaedac2dd9d8a51	-0.06026276545778287
91	0xbfac950d8c6032e0	-0.055824683557238464
92	0x3fa73ec89cf9e4ac	0.04540087619984354
93	0x3fb2c70114e0dbd6	0.07334906348920298
94	0xbfbc532b61b826fd	-0.11064406524397082
95	0x3fb271115f9228b5	0.07203777869486568
96	0xbfb6697728ea8d97	-0.0875467753308413
97	0x3fab76e2c19223d8	0.053641401414161016
98	0x3fc6b1a3208cb55c	0.17729605759943012
99	0x3fb3e65608565830	0.07773339942500068
100	0x3faa028e0784b174	0.050800741594090676
101	0x3fbe645612812c52	0.11871850921413454
102	0x3fd87fbd06ac4873	0.38279653216989756
103	0x3fdab58bfa640075	0.41733073665819315
104	0x3fa727ace2629ba3	0.04522457374087387
105	0x3fb790c75c5933e4	0.0920528984508589
106	0xbfb64feaa3fe28a1	-0.08715693000536585
107	0x3fc75b07b5b2aa72	0.18246551868408606
108	0x3fc4a4841bb57bdb	0.1612706313416926
109	0x3fbd783dd3bbbcc1	0.11511598986884321
110	0x3fd30ee2f585d839	0.2977836034473316
111	0x3fa14dcc128a5ca3	0.03379667021106882
112	0xbfc274fdad2239c5	-0.14419527963441517
113	0xbfb50bffbc1bdfc1	-0.08221433966161752
114	0xbfb12176843cd055	-0.06691685417610078
115	0x3fb1bb28335c8190	0.06926203969897515
116	0xbfb6af96524e69b1	-0.08861674794608267
117	0x3fa7a390ba055a55	0.04616977949870164
118	0x3f75257c2255fe35	0.005162701510357294
119	0x3fc5bebfe13d47cf	0.16988371370331243
120	0xbfafc892bb42e356	-0.06207712684540094
121	0xbfb21abe341adbe1	-0.07072056552975382
122	0xbfb8742f83b229b4	-0.09552285161240698
123	0x3fc4c41048c81172	0.16223338655266734
124	0x3fc518d4b9284b8e	0.16482028046501934
125	0x3fbb4c21e7f366f1	0.1066304389272792
126	0x3fc39ff80cc27e0b	0.15331936476739857
127	0xbf8ed2304c3cddca	-0.015049340559570096
128	0xbfb364589d4f1f00	-0.0757499107413615
129	0xbfb089ad96aa415a	-0.06460080078455147
130	0x3fc2b47542242dea	0.14613214234883226
131	0xbfbf78c89a0205b7	-0.1229367614742135
132	0x3faf69901dfb8bfe	0.06135225645063967
133	0x3fbe2b51e59ae946	0.11784850936502264
134	0x3fa35e52ce7fda86	0.037829005916070677
135	0x3fbe1f3d3a6f0c2d	0.1176641719494433
136	0x3fa7820973c08905	0.045913977985280886
137	0xbfa1b2591f850939	-0.03456381330262776
138	0x3fb669d8d8a37a8f	0.08755259789493607
139	0xbfbc3dfe84f22619	-0.11032095666646348
140	0xbfb0043c67a9051e	-0.0625646355702156
141	0xbf9c62caca1224cb	-0.027720612128665317
142	0xbfa76d24c9d8d01f	-0.04575457538558702
143	0x3fb3d9483fcd82e2	0.07753421361622828
144	0x3fb665e30dcc8527	0.08749217116248485
145	0xbfc0900c71d6a740	-0.1293960147716522
146	0xbfa407cdc2b46037	-0.0391220379044061
147	0xbfbbcf488a6523a8	-0.1086316430929758
148	0x3fb19fe7d241f8de	0.06884621508831709
149	0xbfb8d815b427b49c	-0.09704719208066809
150	0xbfc3fc48ab48d06a	-0.1561365925168759
151	0xbfc2d3422bd4fa26	-0.14707209720832387
152	0xbfb9e71fa265f784	-0.10118291582872813
153	0x3fb1518d5639a6ee	0.06765063624484544
154	0xbfaa74ae66f0caaa	-0.05167145735358265
155	0x3fa14e629e5dc09b	0.03380115683728598
156	0xbf96b29ac7d20a3b	-0.022165697523187183
157	0xbf5d011ae04a077b	-0.0017702829801753129
158	0xbfbb8ca3036b012c	-0.10761469682166042
159	0xbfb13e521bdc1923	-0.0673571889893521
160	0x3f961e7279ee2f93	0.02160052174762901
161	0x3f93c94cff3a7649	0.019322588994887622
162	0x3fc91d90e1a7ceb5	0.19621478098234993
163	0xbfbc8641a0e999e6	-0.11142358950164741
164	0x3fb082338ceb4894	0.06448671522528776
165	0xbfae813e3b11f724	-0.05957979651519299
166	0x3fc00f681a449658	0.1254701736699413
167	0x3fc7e20a5857f679	0.18658570588734216
168	0x3fb287680e055a4b	0.07237863867099141
169	0xbfb3daacf88d7752	-0.07755547588518866
170	0x3fa23074cbe42581	0.03552594174295632
171	0xbfac50e503d825b4	-0.05530467674186515
172	0x3fcbe7ac5326202c	0.21800760326391477
173	0x3fb8177111beb6a4	0.09410769160487092
174	0x3fab436b6fef71c4	0.05324874631307666
175	0x3faaa2d10fbbf921	0.05202344243115165
176	0xbfb8fc8cfa792c1b	-0.09760361781188502
177	0x3fb6742897526dc5	0.08770993894943675
178	0x3fa1ccc44b1ea453	0.034765371484646444
179	0x3f981919f89f7f31	0.02353325443243576
180	0xbf1f3a761e6c2948	-0.00011912675800488271
181	0xbfa35129f9186107	-0.03772860685075057
182	0xbfb74c102fd77845	-0.0910043827820753
183	0x3fac0251d86e1375	0.05470519797294219
184	0x3fc0d1f59c075ca1	0.13140745276061686
185	0x3fbf6c87c51d0b0c	0.12274979173984607
186	0x3fb33320ad1ea44c	0.0749988958983902
187	0x3fb05030d99474ba	0.0637236148072188
188	0x3fb42eb959bec217	0.07883795205157927
189	0x3f7a6e425a76c908	0.006452807610388918
190	0x3fc0a2d3e2b6ef0b	0.12996910638855072
191	0xbfaa3b7a7774fc8a	-0.05123503406729764
192	0xbfc0f6276f92932f	-0.13251202533606363
193	0x3fc24cd94820af19	0.142970237940397
194	0x3fb3aa8a2078d834	0.07682097714209207
195	0x3f9e64d149f7b978	0.029681463374737288
196	0x3fa720cce86b0a5f	0.04517212235579814
197	0x3fb64695da096fff	0.08701454709211019
198	0x3f90762f7bcb23f1	0.01607584183765093
199	0xbfbbeaae0a9d368e	-0.10904968032010684
200	0x3fa3d57a7716a6c0	0.038738085782211495
201	0x3f6e1518349da638	0.0036721680416363055
202	0x3fba76013aded576	0.1033631104208633
203	0xbfbdd3ab5f0aa3c1	-0.11651106901503196
204	0x3f87e8c4a45eb38f	0.011674438730403995
205	0xbf66268ff3614733	-0.0027039348160905695
206	0xbfaddd7da5abe9da	-0.058330465768410014
207	0xbf95715fc655f84d	-0.0209403004459932
208	0xbfa64a7c299f8f32	-0.043537025528875964
209	0x3f9d1e13914030cc	0.02843504499473752
210	0x3fd09d99b610da3b	0.25961916713587
211	0x3f966643fa4b0042	0.02187448706786222
212	0x3f9a0f38a73cca75	0.02544868965851284
213	0xbfb4953c5bbb62cb	-0.08040215720701409
214	0x3fd7a48340867272	0.3694160585526226
215	0x3fc3a6d095c4f849	0.15352828324279447
216	0x3fb870d6c6638734	0.09547178595996969
217	0xbfb450df1e4b58c4	-0.07935900201423168
218	0xbf862139fac99638	-0.010805561986852216
219	0x3fc5adb7a28a4fb2	0.16936393200432814
220	0x3facc51d2e1f8619	0.05619136035944567
221	0xbfbf5fa6ac54dd28	-0.12255326945602418
222	0x3fd6185516b9f78c	0.3452351304948642
223	0xbfb876e098d8143e	-0.0955639241365853
224	0xbfb23d03bca18fbc	-0.07124350886584713
225	0xbfbed320951cbc0f	-0.12040904655872019
226	0x3fba4c859941f804	0.10273013106959189
227	0xbfb1a624248a7fc4	-0.06894136325945427
228	0xbfc09df0099b11c5	-0.1298198744681384
229	0x3fad2cdefaf292fc	0.05698296368908548
230	0xbfc5f9bd877cc220	-0.1716839706000579
231	0xbfc431b383866f95	-0.15776676103712065
232	0xbf942d8f24dca768	-0.019705044388650533
233	0x3fb8ca80a9777008	0.09683994424216291
234	0x3fb6ce44e8fb789f	0.08908491790814076
235	0xbf74f2cf223e3ce8	-0.005114373317965028
236	0xbfac1c8ce0ed888f	-0.054905321557059066
237	0x3fc1cbe4af08c501	0.13903482958406957
238	0xbfbc07dafb031b28	-0.10949486377931505
239	0x3fb0701a627f826d	0.06421055702913643
240	0xbf94df07aba0c07e	-0.020382041788423504
241	0xbfaeac3cd42da374	-0.05990781869952047
242	0x3fbbafc1ca9107ad	0.10815058894607317
243	0x3fbb88937735f88c	0.10755273495121481
244	0xbfb1f106f1c610a2	-0.07008403208425532
245	0xbf9bee358096dff6	-0.02727588269564759
246	0x3fd2cfff6082e338	0.2939451639645543
247	0x3fc5fd297bee4bfa	0.17178839255629424
248	0xbfb95f4dc3169d97	-0.09911046994112947
249	0xbf9b230a9d70c3ec	-0.026500860080151442
250	0x3fb91dced813523c	0.09811108374862781
251	0x3fa39eb0fe200bfc	0.03832009412874268
252	0x3fab19fb55b89161	0.052932600225434674
253	0xbfb9c716098ab79c	-0.10069406254726093
254	0x3fd1016b5145cad4	0.2657116216352453
255	0x3fba9c1d169f24f3	0.10394460489546357

b3 f8 [1, 16]
0	0xbf69cd8d054ca416	-0.0031497721014557374
1	0xbfbf300c46339d0c	-0.12182690347582453
2	0xbf9a316e231dcfbb	-0.02557918633779342
3	0x3f8c7d7ad56f181b	0.013911208761680218
4	0xbf734579da3f0fef	-0.004704929338860338
5	0x3f9c2c78d1ecc9ac	0.0275133970382712
6	0xbf972ad541b737ea	-0.022624332557647543
7	0xbf87bee1cc3bbbb0	-0.01159454731484097
8	0x3f8f13a3737bcea6	0.01517417617967649
9	0xbf8561c5e27a5318	-0.010440393423132785
10	0x3f71db9aa2e6a59c	0.004359821365519958
11	0xbf9f0cdadf56ac44	-0.03032247532034328
12	0xbf959a350866eda1	-0.021096066129513983
13	0xbf7e073a384a1dfe	-0.00733111135617248
14	0xbf8ac60265d1cd94	-0.013072985393796789
15	0xbf99ad227ddc6f34	-0.025074519092512307

w4 f8 [16, 1]
0	0x3f805966b7ea50c4	0.00798301934018076
1	0xbfab8cc6b78f7508	-0.05380841246344842
2	0x3fdee1d48d11e8c8	0.4825335862766562
3	0x3fc220d664eceebd	0.14162712028507043
4	0xbfb203b9dd4536d8	-0.07036935474499317
5	0xbfcd70d7f01b2721	-0.2300062105553531
6	0x3fe53e4cf57d38d7	0.6638550562581952
7	0x3fe58d0c59237ee7	0.673467802142082
8	0x3f8ba0d574c186ef	0.01349035990296296
9	0xbfaef808dc3a105c	-0.06048610390010431
10	0xbf9dc4a71b9cb8d9	-0.02907048326522319
11	0x3fd0259713ce896a	0.25229432043319966
12	0x3fd8fa20a483f6a0	0.39026657167401346
13	0x3f9086944476cf56	0.016138378790585627
14	0x3fe4c7e59c12c7bb	0.6494014786060157
15	0xbfcb0ef393cdfe29	-0.21139378277801882

b4 f8 [1, 1]
0	0x3fe073745f7465e4	0.5140935768460477
